module {
  func.func @main(%arg0: !torch.vtensor<[64],f32>, %arg1: !torch.vtensor<[64],f32>, %arg2: !torch.vtensor<[],si64>, %arg3: !torch.vtensor<[256],f32>, %arg4: !torch.vtensor<[256],f32>, %arg5: !torch.vtensor<[],si64>, %arg6: !torch.vtensor<[64],f32>, %arg7: !torch.vtensor<[64],f32>, %arg8: !torch.vtensor<[],si64>, %arg9: !torch.vtensor<[64],f32>, %arg10: !torch.vtensor<[64],f32>, %arg11: !torch.vtensor<[],si64>, %arg12: !torch.vtensor<[256],f32>, %arg13: !torch.vtensor<[256],f32>, %arg14: !torch.vtensor<[],si64>, %arg15: !torch.vtensor<[64],f32>, %arg16: !torch.vtensor<[64],f32>, %arg17: !torch.vtensor<[],si64>, %arg18: !torch.vtensor<[64],f32>, %arg19: !torch.vtensor<[64],f32>, %arg20: !torch.vtensor<[],si64>, %arg21: !torch.vtensor<[256],f32>, %arg22: !torch.vtensor<[256],f32>, %arg23: !torch.vtensor<[],si64>, %arg24: !torch.vtensor<[64],f32>, %arg25: !torch.vtensor<[64],f32>, %arg26: !torch.vtensor<[],si64>, %arg27: !torch.vtensor<[64],f32>, %arg28: !torch.vtensor<[64],f32>, %arg29: !torch.vtensor<[],si64>, %arg30: !torch.vtensor<[256],f32>, %arg31: !torch.vtensor<[256],f32>, %arg32: !torch.vtensor<[],si64>, %arg33: !torch.vtensor<[512],f32>, %arg34: !torch.vtensor<[512],f32>, %arg35: !torch.vtensor<[],si64>, %arg36: !torch.vtensor<[128],f32>, %arg37: !torch.vtensor<[128],f32>, %arg38: !torch.vtensor<[],si64>, %arg39: !torch.vtensor<[128],f32>, %arg40: !torch.vtensor<[128],f32>, %arg41: !torch.vtensor<[],si64>, %arg42: !torch.vtensor<[512],f32>, %arg43: !torch.vtensor<[512],f32>, %arg44: !torch.vtensor<[],si64>, %arg45: !torch.vtensor<[128],f32>, %arg46: !torch.vtensor<[128],f32>, %arg47: !torch.vtensor<[],si64>, %arg48: !torch.vtensor<[128],f32>, %arg49: !torch.vtensor<[128],f32>, %arg50: !torch.vtensor<[],si64>, %arg51: !torch.vtensor<[512],f32>, %arg52: !torch.vtensor<[512],f32>, %arg53: !torch.vtensor<[],si64>, %arg54: !torch.vtensor<[128],f32>, %arg55: !torch.vtensor<[128],f32>, %arg56: !torch.vtensor<[],si64>, %arg57: !torch.vtensor<[128],f32>, %arg58: !torch.vtensor<[128],f32>, %arg59: !torch.vtensor<[],si64>, %arg60: !torch.vtensor<[512],f32>, %arg61: !torch.vtensor<[512],f32>, %arg62: !torch.vtensor<[],si64>, %arg63: !torch.vtensor<[128],f32>, %arg64: !torch.vtensor<[128],f32>, %arg65: !torch.vtensor<[],si64>, %arg66: !torch.vtensor<[128],f32>, %arg67: !torch.vtensor<[128],f32>, %arg68: !torch.vtensor<[],si64>, %arg69: !torch.vtensor<[512],f32>, %arg70: !torch.vtensor<[512],f32>, %arg71: !torch.vtensor<[],si64>, %arg72: !torch.vtensor<[1024],f32>, %arg73: !torch.vtensor<[1024],f32>, %arg74: !torch.vtensor<[],si64>, %arg75: !torch.vtensor<[256],f32>, %arg76: !torch.vtensor<[256],f32>, %arg77: !torch.vtensor<[],si64>, %arg78: !torch.vtensor<[256],f32>, %arg79: !torch.vtensor<[256],f32>, %arg80: !torch.vtensor<[],si64>, %arg81: !torch.vtensor<[1024],f32>, %arg82: !torch.vtensor<[1024],f32>, %arg83: !torch.vtensor<[],si64>, %arg84: !torch.vtensor<[256],f32>, %arg85: !torch.vtensor<[256],f32>, %arg86: !torch.vtensor<[],si64>, %arg87: !torch.vtensor<[256],f32>, %arg88: !torch.vtensor<[256],f32>, %arg89: !torch.vtensor<[],si64>, %arg90: !torch.vtensor<[1024],f32>, %arg91: !torch.vtensor<[1024],f32>, %arg92: !torch.vtensor<[],si64>, %arg93: !torch.vtensor<[256],f32>, %arg94: !torch.vtensor<[256],f32>, %arg95: !torch.vtensor<[],si64>, %arg96: !torch.vtensor<[256],f32>, %arg97: !torch.vtensor<[256],f32>, %arg98: !torch.vtensor<[],si64>, %arg99: !torch.vtensor<[1024],f32>, %arg100: !torch.vtensor<[1024],f32>, %arg101: !torch.vtensor<[],si64>, %arg102: !torch.vtensor<[256],f32>, %arg103: !torch.vtensor<[256],f32>, %arg104: !torch.vtensor<[],si64>, %arg105: !torch.vtensor<[256],f32>, %arg106: !torch.vtensor<[256],f32>, %arg107: !torch.vtensor<[],si64>, %arg108: !torch.vtensor<[1024],f32>, %arg109: !torch.vtensor<[1024],f32>, %arg110: !torch.vtensor<[],si64>, %arg111: !torch.vtensor<[256],f32>, %arg112: !torch.vtensor<[256],f32>, %arg113: !torch.vtensor<[],si64>, %arg114: !torch.vtensor<[256],f32>, %arg115: !torch.vtensor<[256],f32>, %arg116: !torch.vtensor<[],si64>, %arg117: !torch.vtensor<[1024],f32>, %arg118: !torch.vtensor<[1024],f32>, %arg119: !torch.vtensor<[],si64>, %arg120: !torch.vtensor<[256],f32>, %arg121: !torch.vtensor<[256],f32>, %arg122: !torch.vtensor<[],si64>, %arg123: !torch.vtensor<[256],f32>, %arg124: !torch.vtensor<[256],f32>, %arg125: !torch.vtensor<[],si64>, %arg126: !torch.vtensor<[1024],f32>, %arg127: !torch.vtensor<[1024],f32>, %arg128: !torch.vtensor<[],si64>, %arg129: !torch.vtensor<[2048],f32>, %arg130: !torch.vtensor<[2048],f32>, %arg131: !torch.vtensor<[],si64>, %arg132: !torch.vtensor<[512],f32>, %arg133: !torch.vtensor<[512],f32>, %arg134: !torch.vtensor<[],si64>, %arg135: !torch.vtensor<[512],f32>, %arg136: !torch.vtensor<[512],f32>, %arg137: !torch.vtensor<[],si64>, %arg138: !torch.vtensor<[2048],f32>, %arg139: !torch.vtensor<[2048],f32>, %arg140: !torch.vtensor<[],si64>, %arg141: !torch.vtensor<[512],f32>, %arg142: !torch.vtensor<[512],f32>, %arg143: !torch.vtensor<[],si64>, %arg144: !torch.vtensor<[512],f32>, %arg145: !torch.vtensor<[512],f32>, %arg146: !torch.vtensor<[],si64>, %arg147: !torch.vtensor<[2048],f32>, %arg148: !torch.vtensor<[2048],f32>, %arg149: !torch.vtensor<[],si64>, %arg150: !torch.vtensor<[512],f32>, %arg151: !torch.vtensor<[512],f32>, %arg152: !torch.vtensor<[],si64>, %arg153: !torch.vtensor<[512],f32>, %arg154: !torch.vtensor<[512],f32>, %arg155: !torch.vtensor<[],si64>, %arg156: !torch.vtensor<[2048],f32>, %arg157: !torch.vtensor<[2048],f32>, %arg158: !torch.vtensor<[],si64>, %arg159: !torch.vtensor<[3,3,512,512],f32>) -> (!torch.vtensor<[64],f32>, !torch.vtensor<[64],f32>, !torch.vtensor<[],si64>, !torch.vtensor<[256],f32>, !torch.vtensor<[256],f32>, !torch.vtensor<[],si64>, !torch.vtensor<[64],f32>, !torch.vtensor<[64],f32>, !torch.vtensor<[],si64>, !torch.vtensor<[64],f32>, !torch.vtensor<[64],f32>, !torch.vtensor<[],si64>, !torch.vtensor<[256],f32>, !torch.vtensor<[256],f32>, !torch.vtensor<[],si64>, !torch.vtensor<[64],f32>, !torch.vtensor<[64],f32>, !torch.vtensor<[],si64>, !torch.vtensor<[64],f32>, !torch.vtensor<[64],f32>, !torch.vtensor<[],si64>, !torch.vtensor<[256],f32>, !torch.vtensor<[256],f32>, !torch.vtensor<[],si64>, !torch.vtensor<[64],f32>, !torch.vtensor<[64],f32>, !torch.vtensor<[],si64>, !torch.vtensor<[64],f32>, !torch.vtensor<[64],f32>, !torch.vtensor<[],si64>, !torch.vtensor<[256],f32>, !torch.vtensor<[256],f32>, !torch.vtensor<[],si64>, !torch.vtensor<[512],f32>, !torch.vtensor<[512],f32>, !torch.vtensor<[],si64>, !torch.vtensor<[128],f32>, !torch.vtensor<[128],f32>, !torch.vtensor<[],si64>, !torch.vtensor<[128],f32>, !torch.vtensor<[128],f32>, !torch.vtensor<[],si64>, !torch.vtensor<[512],f32>, !torch.vtensor<[512],f32>, !torch.vtensor<[],si64>, !torch.vtensor<[128],f32>, !torch.vtensor<[128],f32>, !torch.vtensor<[],si64>, !torch.vtensor<[128],f32>, !torch.vtensor<[128],f32>, !torch.vtensor<[],si64>, !torch.vtensor<[512],f32>, !torch.vtensor<[512],f32>, !torch.vtensor<[],si64>, !torch.vtensor<[128],f32>, !torch.vtensor<[128],f32>, !torch.vtensor<[],si64>, !torch.vtensor<[128],f32>, !torch.vtensor<[128],f32>, !torch.vtensor<[],si64>, !torch.vtensor<[512],f32>, !torch.vtensor<[512],f32>, !torch.vtensor<[],si64>, !torch.vtensor<[128],f32>, !torch.vtensor<[128],f32>, !torch.vtensor<[],si64>, !torch.vtensor<[128],f32>, !torch.vtensor<[128],f32>, !torch.vtensor<[],si64>, !torch.vtensor<[512],f32>, !torch.vtensor<[512],f32>, !torch.vtensor<[],si64>, !torch.vtensor<[1024],f32>, !torch.vtensor<[1024],f32>, !torch.vtensor<[],si64>, !torch.vtensor<[256],f32>, !torch.vtensor<[256],f32>, !torch.vtensor<[],si64>, !torch.vtensor<[256],f32>, !torch.vtensor<[256],f32>, !torch.vtensor<[],si64>, !torch.vtensor<[1024],f32>, !torch.vtensor<[1024],f32>, !torch.vtensor<[],si64>, !torch.vtensor<[256],f32>, !torch.vtensor<[256],f32>, !torch.vtensor<[],si64>, !torch.vtensor<[256],f32>, !torch.vtensor<[256],f32>, !torch.vtensor<[],si64>, !torch.vtensor<[1024],f32>, !torch.vtensor<[1024],f32>, !torch.vtensor<[],si64>, !torch.vtensor<[256],f32>, !torch.vtensor<[256],f32>, !torch.vtensor<[],si64>, !torch.vtensor<[256],f32>, !torch.vtensor<[256],f32>, !torch.vtensor<[],si64>, !torch.vtensor<[1024],f32>, !torch.vtensor<[1024],f32>, !torch.vtensor<[],si64>, !torch.vtensor<[256],f32>, !torch.vtensor<[256],f32>, !torch.vtensor<[],si64>, !torch.vtensor<[256],f32>, !torch.vtensor<[256],f32>, !torch.vtensor<[],si64>, !torch.vtensor<[1024],f32>, !torch.vtensor<[1024],f32>, !torch.vtensor<[],si64>, !torch.vtensor<[256],f32>, !torch.vtensor<[256],f32>, !torch.vtensor<[],si64>, !torch.vtensor<[256],f32>, !torch.vtensor<[256],f32>, !torch.vtensor<[],si64>, !torch.vtensor<[1024],f32>, !torch.vtensor<[1024],f32>, !torch.vtensor<[],si64>, !torch.vtensor<[256],f32>, !torch.vtensor<[256],f32>, !torch.vtensor<[],si64>, !torch.vtensor<[256],f32>, !torch.vtensor<[256],f32>, !torch.vtensor<[],si64>, !torch.vtensor<[1024],f32>, !torch.vtensor<[1024],f32>, !torch.vtensor<[],si64>, !torch.vtensor<[2048],f32>, !torch.vtensor<[2048],f32>, !torch.vtensor<[],si64>, !torch.vtensor<[512],f32>, !torch.vtensor<[512],f32>, !torch.vtensor<[],si64>, !torch.vtensor<[512],f32>, !torch.vtensor<[512],f32>, !torch.vtensor<[],si64>, !torch.vtensor<[2048],f32>, !torch.vtensor<[2048],f32>, !torch.vtensor<[],si64>, !torch.vtensor<[512],f32>, !torch.vtensor<[512],f32>, !torch.vtensor<[],si64>, !torch.vtensor<[512],f32>, !torch.vtensor<[512],f32>, !torch.vtensor<[],si64>, !torch.vtensor<[2048],f32>, !torch.vtensor<[2048],f32>, !torch.vtensor<[],si64>, !torch.vtensor<[512],f32>, !torch.vtensor<[512],f32>, !torch.vtensor<[],si64>, !torch.vtensor<[512],f32>, !torch.vtensor<[512],f32>, !torch.vtensor<[],si64>, !torch.vtensor<[2048],f32>, !torch.vtensor<[2048],f32>, !torch.vtensor<[],si64>, !torch.vtensor<[3,1000],f32>) {
    %0 = torch.vtensor.literal(dense_resource<torch_tensor_64_3_7_7_torch.float32> : tensor<64x3x7x7xf32>) : !torch.vtensor<[64,3,7,7],f32>
    %none = torch.constant.none
    %int2 = torch.constant.int 2
    %int2_0 = torch.constant.int 2
    %1 = torch.prim.ListConstruct %int2, %int2_0 : (!torch.int, !torch.int) -> !torch.list<int>
    %int3 = torch.constant.int 3
    %int3_1 = torch.constant.int 3
    %2 = torch.prim.ListConstruct %int3, %int3_1 : (!torch.int, !torch.int) -> !torch.list<int>
    %int1 = torch.constant.int 1
    %int1_2 = torch.constant.int 1
    %3 = torch.prim.ListConstruct %int1, %int1_2 : (!torch.int, !torch.int) -> !torch.list<int>
    %int1_3 = torch.constant.int 1
    %4 = torch.aten.conv2d %arg159, %0, %none, %1, %2, %3, %int1_3 : !torch.vtensor<[3,3,512,512],f32>, !torch.vtensor<[64,3,7,7],f32>, !torch.none, !torch.list<int>, !torch.list<int>, !torch.list<int>, !torch.int -> !torch.vtensor<[3,64,256,256],f32>
    %int1_4 = torch.constant.int 1
    %int1_5 = torch.constant.int 1
    %5 = torch.aten.add.Scalar %arg2, %int1_4, %int1_5 : !torch.vtensor<[],si64>, !torch.int, !torch.int -> !torch.vtensor<[],si64>
    %int0 = torch.constant.int 0
    %int2_6 = torch.constant.int 2
    %int3_7 = torch.constant.int 3
    %6 = torch.prim.ListConstruct %int0, %int2_6, %int3_7 : (!torch.int, !torch.int, !torch.int) -> !torch.list<int>
    %int0_8 = torch.constant.int 0
    %true = torch.constant.bool true
    %result0, %result1 = torch.aten.var_mean.correction %4, %6, %int0_8, %true : !torch.vtensor<[3,64,256,256],f32>, !torch.list<int>, !torch.int, !torch.bool -> !torch.vtensor<[1,64,1,1],f32>, !torch.vtensor<[1,64,1,1],f32>
    %float1.000000e-05 = torch.constant.float 1.000000e-05
    %int1_9 = torch.constant.int 1
    %7 = torch.aten.add.Scalar %result0, %float1.000000e-05, %int1_9 : !torch.vtensor<[1,64,1,1],f32>, !torch.float, !torch.int -> !torch.vtensor<[1,64,1,1],f32>
    %8 = torch.aten.rsqrt %7 : !torch.vtensor<[1,64,1,1],f32> -> !torch.vtensor<[1,64,1,1],f32>
    %int1_10 = torch.constant.int 1
    %9 = torch.aten.sub.Tensor %4, %result1, %int1_10 : !torch.vtensor<[3,64,256,256],f32>, !torch.vtensor<[1,64,1,1],f32>, !torch.int -> !torch.vtensor<[3,64,256,256],f32>
    %10 = torch.aten.mul.Tensor %9, %8 : !torch.vtensor<[3,64,256,256],f32>, !torch.vtensor<[1,64,1,1],f32> -> !torch.vtensor<[3,64,256,256],f32>
    %int3_11 = torch.constant.int 3
    %11 = torch.prim.ListConstruct %int3_11 : (!torch.int) -> !torch.list<int>
    %12 = torch.prims.squeeze %result1, %11 : !torch.vtensor<[1,64,1,1],f32>, !torch.list<int> -> !torch.vtensor<[1,64,1],f32>
    %int2_12 = torch.constant.int 2
    %13 = torch.prim.ListConstruct %int2_12 : (!torch.int) -> !torch.list<int>
    %14 = torch.prims.squeeze %12, %13 : !torch.vtensor<[1,64,1],f32>, !torch.list<int> -> !torch.vtensor<[1,64],f32>
    %int0_13 = torch.constant.int 0
    %15 = torch.prim.ListConstruct %int0_13 : (!torch.int) -> !torch.list<int>
    %16 = torch.prims.squeeze %14, %15 : !torch.vtensor<[1,64],f32>, !torch.list<int> -> !torch.vtensor<[64],f32>
    %float1.000000e-01 = torch.constant.float 1.000000e-01
    %17 = torch.aten.mul.Scalar %16, %float1.000000e-01 : !torch.vtensor<[64],f32>, !torch.float -> !torch.vtensor<[64],f32>
    %float9.000000e-01 = torch.constant.float 9.000000e-01
    %18 = torch.aten.mul.Scalar %arg0, %float9.000000e-01 : !torch.vtensor<[64],f32>, !torch.float -> !torch.vtensor<[64],f32>
    %int1_14 = torch.constant.int 1
    %19 = torch.aten.add.Tensor %17, %18, %int1_14 : !torch.vtensor<[64],f32>, !torch.vtensor<[64],f32>, !torch.int -> !torch.vtensor<[64],f32>
    %int3_15 = torch.constant.int 3
    %20 = torch.prim.ListConstruct %int3_15 : (!torch.int) -> !torch.list<int>
    %21 = torch.prims.squeeze %result0, %20 : !torch.vtensor<[1,64,1,1],f32>, !torch.list<int> -> !torch.vtensor<[1,64,1],f32>
    %int2_16 = torch.constant.int 2
    %22 = torch.prim.ListConstruct %int2_16 : (!torch.int) -> !torch.list<int>
    %23 = torch.prims.squeeze %21, %22 : !torch.vtensor<[1,64,1],f32>, !torch.list<int> -> !torch.vtensor<[1,64],f32>
    %int0_17 = torch.constant.int 0
    %24 = torch.prim.ListConstruct %int0_17 : (!torch.int) -> !torch.list<int>
    %25 = torch.prims.squeeze %23, %24 : !torch.vtensor<[1,64],f32>, !torch.list<int> -> !torch.vtensor<[64],f32>
    %float1.000010e00 = torch.constant.float 1.000005086288891
    %26 = torch.aten.mul.Scalar %25, %float1.000010e00 : !torch.vtensor<[64],f32>, !torch.float -> !torch.vtensor<[64],f32>
    %float1.000000e-01_18 = torch.constant.float 1.000000e-01
    %27 = torch.aten.mul.Scalar %26, %float1.000000e-01_18 : !torch.vtensor<[64],f32>, !torch.float -> !torch.vtensor<[64],f32>
    %float9.000000e-01_19 = torch.constant.float 9.000000e-01
    %28 = torch.aten.mul.Scalar %arg1, %float9.000000e-01_19 : !torch.vtensor<[64],f32>, !torch.float -> !torch.vtensor<[64],f32>
    %int1_20 = torch.constant.int 1
    %29 = torch.aten.add.Tensor %27, %28, %int1_20 : !torch.vtensor<[64],f32>, !torch.vtensor<[64],f32>, !torch.int -> !torch.vtensor<[64],f32>
    %30 = torch.vtensor.literal(dense_resource<torch_tensor_64_torch.float32> : tensor<64xf32>) : !torch.vtensor<[64],f32>
    %int-1 = torch.constant.int -1
    %31 = torch.aten.unsqueeze %30, %int-1 : !torch.vtensor<[64],f32>, !torch.int -> !torch.vtensor<[64,1],f32>
    %int-1_21 = torch.constant.int -1
    %32 = torch.aten.unsqueeze %31, %int-1_21 : !torch.vtensor<[64,1],f32>, !torch.int -> !torch.vtensor<[64,1,1],f32>
    %33 = torch.aten.mul.Tensor %10, %32 : !torch.vtensor<[3,64,256,256],f32>, !torch.vtensor<[64,1,1],f32> -> !torch.vtensor<[3,64,256,256],f32>
    %34 = torch.vtensor.literal(dense_resource<torch_tensor_64_torch.float32_1> : tensor<64xf32>) : !torch.vtensor<[64],f32>
    %int-1_22 = torch.constant.int -1
    %35 = torch.aten.unsqueeze %34, %int-1_22 : !torch.vtensor<[64],f32>, !torch.int -> !torch.vtensor<[64,1],f32>
    %int-1_23 = torch.constant.int -1
    %36 = torch.aten.unsqueeze %35, %int-1_23 : !torch.vtensor<[64,1],f32>, !torch.int -> !torch.vtensor<[64,1,1],f32>
    %int1_24 = torch.constant.int 1
    %37 = torch.aten.add.Tensor %33, %36, %int1_24 : !torch.vtensor<[3,64,256,256],f32>, !torch.vtensor<[64,1,1],f32>, !torch.int -> !torch.vtensor<[3,64,256,256],f32>
    %38 = torch.aten.relu %37 : !torch.vtensor<[3,64,256,256],f32> -> !torch.vtensor<[3,64,256,256],f32>
    %int3_25 = torch.constant.int 3
    %int3_26 = torch.constant.int 3
    %39 = torch.prim.ListConstruct %int3_25, %int3_26 : (!torch.int, !torch.int) -> !torch.list<int>
    %int2_27 = torch.constant.int 2
    %int2_28 = torch.constant.int 2
    %40 = torch.prim.ListConstruct %int2_27, %int2_28 : (!torch.int, !torch.int) -> !torch.list<int>
    %int1_29 = torch.constant.int 1
    %int1_30 = torch.constant.int 1
    %41 = torch.prim.ListConstruct %int1_29, %int1_30 : (!torch.int, !torch.int) -> !torch.list<int>
    %int1_31 = torch.constant.int 1
    %int1_32 = torch.constant.int 1
    %42 = torch.prim.ListConstruct %int1_31, %int1_32 : (!torch.int, !torch.int) -> !torch.list<int>
    %false = torch.constant.bool false
    %43 = torch.aten.max_pool2d %38, %39, %40, %41, %42, %false : !torch.vtensor<[3,64,256,256],f32>, !torch.list<int>, !torch.list<int>, !torch.list<int>, !torch.list<int>, !torch.bool -> !torch.vtensor<[3,64,128,128],f32>
    %44 = torch.vtensor.literal(dense_resource<torch_tensor_256_64_1_1_torch.float32> : tensor<256x64x1x1xf32>) : !torch.vtensor<[256,64,1,1],f32>
    %none_33 = torch.constant.none
    %int1_34 = torch.constant.int 1
    %int1_35 = torch.constant.int 1
    %45 = torch.prim.ListConstruct %int1_34, %int1_35 : (!torch.int, !torch.int) -> !torch.list<int>
    %int0_36 = torch.constant.int 0
    %int0_37 = torch.constant.int 0
    %46 = torch.prim.ListConstruct %int0_36, %int0_37 : (!torch.int, !torch.int) -> !torch.list<int>
    %int1_38 = torch.constant.int 1
    %int1_39 = torch.constant.int 1
    %47 = torch.prim.ListConstruct %int1_38, %int1_39 : (!torch.int, !torch.int) -> !torch.list<int>
    %int1_40 = torch.constant.int 1
    %48 = torch.aten.conv2d %43, %44, %none_33, %45, %46, %47, %int1_40 : !torch.vtensor<[3,64,128,128],f32>, !torch.vtensor<[256,64,1,1],f32>, !torch.none, !torch.list<int>, !torch.list<int>, !torch.list<int>, !torch.int -> !torch.vtensor<[3,256,128,128],f32>
    %int1_41 = torch.constant.int 1
    %int1_42 = torch.constant.int 1
    %49 = torch.aten.add.Scalar %arg5, %int1_41, %int1_42 : !torch.vtensor<[],si64>, !torch.int, !torch.int -> !torch.vtensor<[],si64>
    %int0_43 = torch.constant.int 0
    %int2_44 = torch.constant.int 2
    %int3_45 = torch.constant.int 3
    %50 = torch.prim.ListConstruct %int0_43, %int2_44, %int3_45 : (!torch.int, !torch.int, !torch.int) -> !torch.list<int>
    %int0_46 = torch.constant.int 0
    %true_47 = torch.constant.bool true
    %result0_48, %result1_49 = torch.aten.var_mean.correction %48, %50, %int0_46, %true_47 : !torch.vtensor<[3,256,128,128],f32>, !torch.list<int>, !torch.int, !torch.bool -> !torch.vtensor<[1,256,1,1],f32>, !torch.vtensor<[1,256,1,1],f32>
    %float1.000000e-05_50 = torch.constant.float 1.000000e-05
    %int1_51 = torch.constant.int 1
    %51 = torch.aten.add.Scalar %result0_48, %float1.000000e-05_50, %int1_51 : !torch.vtensor<[1,256,1,1],f32>, !torch.float, !torch.int -> !torch.vtensor<[1,256,1,1],f32>
    %52 = torch.aten.rsqrt %51 : !torch.vtensor<[1,256,1,1],f32> -> !torch.vtensor<[1,256,1,1],f32>
    %int1_52 = torch.constant.int 1
    %53 = torch.aten.sub.Tensor %48, %result1_49, %int1_52 : !torch.vtensor<[3,256,128,128],f32>, !torch.vtensor<[1,256,1,1],f32>, !torch.int -> !torch.vtensor<[3,256,128,128],f32>
    %54 = torch.aten.mul.Tensor %53, %52 : !torch.vtensor<[3,256,128,128],f32>, !torch.vtensor<[1,256,1,1],f32> -> !torch.vtensor<[3,256,128,128],f32>
    %int3_53 = torch.constant.int 3
    %55 = torch.prim.ListConstruct %int3_53 : (!torch.int) -> !torch.list<int>
    %56 = torch.prims.squeeze %result1_49, %55 : !torch.vtensor<[1,256,1,1],f32>, !torch.list<int> -> !torch.vtensor<[1,256,1],f32>
    %int2_54 = torch.constant.int 2
    %57 = torch.prim.ListConstruct %int2_54 : (!torch.int) -> !torch.list<int>
    %58 = torch.prims.squeeze %56, %57 : !torch.vtensor<[1,256,1],f32>, !torch.list<int> -> !torch.vtensor<[1,256],f32>
    %int0_55 = torch.constant.int 0
    %59 = torch.prim.ListConstruct %int0_55 : (!torch.int) -> !torch.list<int>
    %60 = torch.prims.squeeze %58, %59 : !torch.vtensor<[1,256],f32>, !torch.list<int> -> !torch.vtensor<[256],f32>
    %float1.000000e-01_56 = torch.constant.float 1.000000e-01
    %61 = torch.aten.mul.Scalar %60, %float1.000000e-01_56 : !torch.vtensor<[256],f32>, !torch.float -> !torch.vtensor<[256],f32>
    %float9.000000e-01_57 = torch.constant.float 9.000000e-01
    %62 = torch.aten.mul.Scalar %arg3, %float9.000000e-01_57 : !torch.vtensor<[256],f32>, !torch.float -> !torch.vtensor<[256],f32>
    %int1_58 = torch.constant.int 1
    %63 = torch.aten.add.Tensor %61, %62, %int1_58 : !torch.vtensor<[256],f32>, !torch.vtensor<[256],f32>, !torch.int -> !torch.vtensor<[256],f32>
    %int3_59 = torch.constant.int 3
    %64 = torch.prim.ListConstruct %int3_59 : (!torch.int) -> !torch.list<int>
    %65 = torch.prims.squeeze %result0_48, %64 : !torch.vtensor<[1,256,1,1],f32>, !torch.list<int> -> !torch.vtensor<[1,256,1],f32>
    %int2_60 = torch.constant.int 2
    %66 = torch.prim.ListConstruct %int2_60 : (!torch.int) -> !torch.list<int>
    %67 = torch.prims.squeeze %65, %66 : !torch.vtensor<[1,256,1],f32>, !torch.list<int> -> !torch.vtensor<[1,256],f32>
    %int0_61 = torch.constant.int 0
    %68 = torch.prim.ListConstruct %int0_61 : (!torch.int) -> !torch.list<int>
    %69 = torch.prims.squeeze %67, %68 : !torch.vtensor<[1,256],f32>, !torch.list<int> -> !torch.vtensor<[256],f32>
    %float1.000020e00 = torch.constant.float 1.0000203454660128
    %70 = torch.aten.mul.Scalar %69, %float1.000020e00 : !torch.vtensor<[256],f32>, !torch.float -> !torch.vtensor<[256],f32>
    %float1.000000e-01_62 = torch.constant.float 1.000000e-01
    %71 = torch.aten.mul.Scalar %70, %float1.000000e-01_62 : !torch.vtensor<[256],f32>, !torch.float -> !torch.vtensor<[256],f32>
    %float9.000000e-01_63 = torch.constant.float 9.000000e-01
    %72 = torch.aten.mul.Scalar %arg4, %float9.000000e-01_63 : !torch.vtensor<[256],f32>, !torch.float -> !torch.vtensor<[256],f32>
    %int1_64 = torch.constant.int 1
    %73 = torch.aten.add.Tensor %71, %72, %int1_64 : !torch.vtensor<[256],f32>, !torch.vtensor<[256],f32>, !torch.int -> !torch.vtensor<[256],f32>
    %74 = torch.vtensor.literal(dense_resource<torch_tensor_256_torch.float32> : tensor<256xf32>) : !torch.vtensor<[256],f32>
    %int-1_65 = torch.constant.int -1
    %75 = torch.aten.unsqueeze %74, %int-1_65 : !torch.vtensor<[256],f32>, !torch.int -> !torch.vtensor<[256,1],f32>
    %int-1_66 = torch.constant.int -1
    %76 = torch.aten.unsqueeze %75, %int-1_66 : !torch.vtensor<[256,1],f32>, !torch.int -> !torch.vtensor<[256,1,1],f32>
    %77 = torch.aten.mul.Tensor %54, %76 : !torch.vtensor<[3,256,128,128],f32>, !torch.vtensor<[256,1,1],f32> -> !torch.vtensor<[3,256,128,128],f32>
    %78 = torch.vtensor.literal(dense_resource<torch_tensor_256_torch.float32_1> : tensor<256xf32>) : !torch.vtensor<[256],f32>
    %int-1_67 = torch.constant.int -1
    %79 = torch.aten.unsqueeze %78, %int-1_67 : !torch.vtensor<[256],f32>, !torch.int -> !torch.vtensor<[256,1],f32>
    %int-1_68 = torch.constant.int -1
    %80 = torch.aten.unsqueeze %79, %int-1_68 : !torch.vtensor<[256,1],f32>, !torch.int -> !torch.vtensor<[256,1,1],f32>
    %int1_69 = torch.constant.int 1
    %81 = torch.aten.add.Tensor %77, %80, %int1_69 : !torch.vtensor<[3,256,128,128],f32>, !torch.vtensor<[256,1,1],f32>, !torch.int -> !torch.vtensor<[3,256,128,128],f32>
    %82 = torch.vtensor.literal(dense_resource<torch_tensor_64_64_1_1_torch.float32> : tensor<64x64x1x1xf32>) : !torch.vtensor<[64,64,1,1],f32>
    %none_70 = torch.constant.none
    %int1_71 = torch.constant.int 1
    %int1_72 = torch.constant.int 1
    %83 = torch.prim.ListConstruct %int1_71, %int1_72 : (!torch.int, !torch.int) -> !torch.list<int>
    %int0_73 = torch.constant.int 0
    %int0_74 = torch.constant.int 0
    %84 = torch.prim.ListConstruct %int0_73, %int0_74 : (!torch.int, !torch.int) -> !torch.list<int>
    %int1_75 = torch.constant.int 1
    %int1_76 = torch.constant.int 1
    %85 = torch.prim.ListConstruct %int1_75, %int1_76 : (!torch.int, !torch.int) -> !torch.list<int>
    %int1_77 = torch.constant.int 1
    %86 = torch.aten.conv2d %43, %82, %none_70, %83, %84, %85, %int1_77 : !torch.vtensor<[3,64,128,128],f32>, !torch.vtensor<[64,64,1,1],f32>, !torch.none, !torch.list<int>, !torch.list<int>, !torch.list<int>, !torch.int -> !torch.vtensor<[3,64,128,128],f32>
    %int1_78 = torch.constant.int 1
    %int1_79 = torch.constant.int 1
    %87 = torch.aten.add.Scalar %arg8, %int1_78, %int1_79 : !torch.vtensor<[],si64>, !torch.int, !torch.int -> !torch.vtensor<[],si64>
    %int0_80 = torch.constant.int 0
    %int2_81 = torch.constant.int 2
    %int3_82 = torch.constant.int 3
    %88 = torch.prim.ListConstruct %int0_80, %int2_81, %int3_82 : (!torch.int, !torch.int, !torch.int) -> !torch.list<int>
    %int0_83 = torch.constant.int 0
    %true_84 = torch.constant.bool true
    %result0_85, %result1_86 = torch.aten.var_mean.correction %86, %88, %int0_83, %true_84 : !torch.vtensor<[3,64,128,128],f32>, !torch.list<int>, !torch.int, !torch.bool -> !torch.vtensor<[1,64,1,1],f32>, !torch.vtensor<[1,64,1,1],f32>
    %float1.000000e-05_87 = torch.constant.float 1.000000e-05
    %int1_88 = torch.constant.int 1
    %89 = torch.aten.add.Scalar %result0_85, %float1.000000e-05_87, %int1_88 : !torch.vtensor<[1,64,1,1],f32>, !torch.float, !torch.int -> !torch.vtensor<[1,64,1,1],f32>
    %90 = torch.aten.rsqrt %89 : !torch.vtensor<[1,64,1,1],f32> -> !torch.vtensor<[1,64,1,1],f32>
    %int1_89 = torch.constant.int 1
    %91 = torch.aten.sub.Tensor %86, %result1_86, %int1_89 : !torch.vtensor<[3,64,128,128],f32>, !torch.vtensor<[1,64,1,1],f32>, !torch.int -> !torch.vtensor<[3,64,128,128],f32>
    %92 = torch.aten.mul.Tensor %91, %90 : !torch.vtensor<[3,64,128,128],f32>, !torch.vtensor<[1,64,1,1],f32> -> !torch.vtensor<[3,64,128,128],f32>
    %int3_90 = torch.constant.int 3
    %93 = torch.prim.ListConstruct %int3_90 : (!torch.int) -> !torch.list<int>
    %94 = torch.prims.squeeze %result1_86, %93 : !torch.vtensor<[1,64,1,1],f32>, !torch.list<int> -> !torch.vtensor<[1,64,1],f32>
    %int2_91 = torch.constant.int 2
    %95 = torch.prim.ListConstruct %int2_91 : (!torch.int) -> !torch.list<int>
    %96 = torch.prims.squeeze %94, %95 : !torch.vtensor<[1,64,1],f32>, !torch.list<int> -> !torch.vtensor<[1,64],f32>
    %int0_92 = torch.constant.int 0
    %97 = torch.prim.ListConstruct %int0_92 : (!torch.int) -> !torch.list<int>
    %98 = torch.prims.squeeze %96, %97 : !torch.vtensor<[1,64],f32>, !torch.list<int> -> !torch.vtensor<[64],f32>
    %float1.000000e-01_93 = torch.constant.float 1.000000e-01
    %99 = torch.aten.mul.Scalar %98, %float1.000000e-01_93 : !torch.vtensor<[64],f32>, !torch.float -> !torch.vtensor<[64],f32>
    %float9.000000e-01_94 = torch.constant.float 9.000000e-01
    %100 = torch.aten.mul.Scalar %arg6, %float9.000000e-01_94 : !torch.vtensor<[64],f32>, !torch.float -> !torch.vtensor<[64],f32>
    %int1_95 = torch.constant.int 1
    %101 = torch.aten.add.Tensor %99, %100, %int1_95 : !torch.vtensor<[64],f32>, !torch.vtensor<[64],f32>, !torch.int -> !torch.vtensor<[64],f32>
    %int3_96 = torch.constant.int 3
    %102 = torch.prim.ListConstruct %int3_96 : (!torch.int) -> !torch.list<int>
    %103 = torch.prims.squeeze %result0_85, %102 : !torch.vtensor<[1,64,1,1],f32>, !torch.list<int> -> !torch.vtensor<[1,64,1],f32>
    %int2_97 = torch.constant.int 2
    %104 = torch.prim.ListConstruct %int2_97 : (!torch.int) -> !torch.list<int>
    %105 = torch.prims.squeeze %103, %104 : !torch.vtensor<[1,64,1],f32>, !torch.list<int> -> !torch.vtensor<[1,64],f32>
    %int0_98 = torch.constant.int 0
    %106 = torch.prim.ListConstruct %int0_98 : (!torch.int) -> !torch.list<int>
    %107 = torch.prims.squeeze %105, %106 : !torch.vtensor<[1,64],f32>, !torch.list<int> -> !torch.vtensor<[64],f32>
    %float1.000020e00_99 = torch.constant.float 1.0000203454660128
    %108 = torch.aten.mul.Scalar %107, %float1.000020e00_99 : !torch.vtensor<[64],f32>, !torch.float -> !torch.vtensor<[64],f32>
    %float1.000000e-01_100 = torch.constant.float 1.000000e-01
    %109 = torch.aten.mul.Scalar %108, %float1.000000e-01_100 : !torch.vtensor<[64],f32>, !torch.float -> !torch.vtensor<[64],f32>
    %float9.000000e-01_101 = torch.constant.float 9.000000e-01
    %110 = torch.aten.mul.Scalar %arg7, %float9.000000e-01_101 : !torch.vtensor<[64],f32>, !torch.float -> !torch.vtensor<[64],f32>
    %int1_102 = torch.constant.int 1
    %111 = torch.aten.add.Tensor %109, %110, %int1_102 : !torch.vtensor<[64],f32>, !torch.vtensor<[64],f32>, !torch.int -> !torch.vtensor<[64],f32>
    %112 = torch.vtensor.literal(dense_resource<torch_tensor_64_torch.float32_2> : tensor<64xf32>) : !torch.vtensor<[64],f32>
    %int-1_103 = torch.constant.int -1
    %113 = torch.aten.unsqueeze %112, %int-1_103 : !torch.vtensor<[64],f32>, !torch.int -> !torch.vtensor<[64,1],f32>
    %int-1_104 = torch.constant.int -1
    %114 = torch.aten.unsqueeze %113, %int-1_104 : !torch.vtensor<[64,1],f32>, !torch.int -> !torch.vtensor<[64,1,1],f32>
    %115 = torch.aten.mul.Tensor %92, %114 : !torch.vtensor<[3,64,128,128],f32>, !torch.vtensor<[64,1,1],f32> -> !torch.vtensor<[3,64,128,128],f32>
    %116 = torch.vtensor.literal(dense_resource<torch_tensor_64_torch.float32_3> : tensor<64xf32>) : !torch.vtensor<[64],f32>
    %int-1_105 = torch.constant.int -1
    %117 = torch.aten.unsqueeze %116, %int-1_105 : !torch.vtensor<[64],f32>, !torch.int -> !torch.vtensor<[64,1],f32>
    %int-1_106 = torch.constant.int -1
    %118 = torch.aten.unsqueeze %117, %int-1_106 : !torch.vtensor<[64,1],f32>, !torch.int -> !torch.vtensor<[64,1,1],f32>
    %int1_107 = torch.constant.int 1
    %119 = torch.aten.add.Tensor %115, %118, %int1_107 : !torch.vtensor<[3,64,128,128],f32>, !torch.vtensor<[64,1,1],f32>, !torch.int -> !torch.vtensor<[3,64,128,128],f32>
    %120 = torch.aten.relu %119 : !torch.vtensor<[3,64,128,128],f32> -> !torch.vtensor<[3,64,128,128],f32>
    %121 = torch.vtensor.literal(dense_resource<torch_tensor_64_64_3_3_torch.float32> : tensor<64x64x3x3xf32>) : !torch.vtensor<[64,64,3,3],f32>
    %none_108 = torch.constant.none
    %int1_109 = torch.constant.int 1
    %int1_110 = torch.constant.int 1
    %122 = torch.prim.ListConstruct %int1_109, %int1_110 : (!torch.int, !torch.int) -> !torch.list<int>
    %int1_111 = torch.constant.int 1
    %int1_112 = torch.constant.int 1
    %123 = torch.prim.ListConstruct %int1_111, %int1_112 : (!torch.int, !torch.int) -> !torch.list<int>
    %int1_113 = torch.constant.int 1
    %int1_114 = torch.constant.int 1
    %124 = torch.prim.ListConstruct %int1_113, %int1_114 : (!torch.int, !torch.int) -> !torch.list<int>
    %int1_115 = torch.constant.int 1
    %125 = torch.aten.conv2d %120, %121, %none_108, %122, %123, %124, %int1_115 : !torch.vtensor<[3,64,128,128],f32>, !torch.vtensor<[64,64,3,3],f32>, !torch.none, !torch.list<int>, !torch.list<int>, !torch.list<int>, !torch.int -> !torch.vtensor<[3,64,128,128],f32>
    %int1_116 = torch.constant.int 1
    %int1_117 = torch.constant.int 1
    %126 = torch.aten.add.Scalar %arg11, %int1_116, %int1_117 : !torch.vtensor<[],si64>, !torch.int, !torch.int -> !torch.vtensor<[],si64>
    %int0_118 = torch.constant.int 0
    %int2_119 = torch.constant.int 2
    %int3_120 = torch.constant.int 3
    %127 = torch.prim.ListConstruct %int0_118, %int2_119, %int3_120 : (!torch.int, !torch.int, !torch.int) -> !torch.list<int>
    %int0_121 = torch.constant.int 0
    %true_122 = torch.constant.bool true
    %result0_123, %result1_124 = torch.aten.var_mean.correction %125, %127, %int0_121, %true_122 : !torch.vtensor<[3,64,128,128],f32>, !torch.list<int>, !torch.int, !torch.bool -> !torch.vtensor<[1,64,1,1],f32>, !torch.vtensor<[1,64,1,1],f32>
    %float1.000000e-05_125 = torch.constant.float 1.000000e-05
    %int1_126 = torch.constant.int 1
    %128 = torch.aten.add.Scalar %result0_123, %float1.000000e-05_125, %int1_126 : !torch.vtensor<[1,64,1,1],f32>, !torch.float, !torch.int -> !torch.vtensor<[1,64,1,1],f32>
    %129 = torch.aten.rsqrt %128 : !torch.vtensor<[1,64,1,1],f32> -> !torch.vtensor<[1,64,1,1],f32>
    %int1_127 = torch.constant.int 1
    %130 = torch.aten.sub.Tensor %125, %result1_124, %int1_127 : !torch.vtensor<[3,64,128,128],f32>, !torch.vtensor<[1,64,1,1],f32>, !torch.int -> !torch.vtensor<[3,64,128,128],f32>
    %131 = torch.aten.mul.Tensor %130, %129 : !torch.vtensor<[3,64,128,128],f32>, !torch.vtensor<[1,64,1,1],f32> -> !torch.vtensor<[3,64,128,128],f32>
    %int3_128 = torch.constant.int 3
    %132 = torch.prim.ListConstruct %int3_128 : (!torch.int) -> !torch.list<int>
    %133 = torch.prims.squeeze %result1_124, %132 : !torch.vtensor<[1,64,1,1],f32>, !torch.list<int> -> !torch.vtensor<[1,64,1],f32>
    %int2_129 = torch.constant.int 2
    %134 = torch.prim.ListConstruct %int2_129 : (!torch.int) -> !torch.list<int>
    %135 = torch.prims.squeeze %133, %134 : !torch.vtensor<[1,64,1],f32>, !torch.list<int> -> !torch.vtensor<[1,64],f32>
    %int0_130 = torch.constant.int 0
    %136 = torch.prim.ListConstruct %int0_130 : (!torch.int) -> !torch.list<int>
    %137 = torch.prims.squeeze %135, %136 : !torch.vtensor<[1,64],f32>, !torch.list<int> -> !torch.vtensor<[64],f32>
    %float1.000000e-01_131 = torch.constant.float 1.000000e-01
    %138 = torch.aten.mul.Scalar %137, %float1.000000e-01_131 : !torch.vtensor<[64],f32>, !torch.float -> !torch.vtensor<[64],f32>
    %float9.000000e-01_132 = torch.constant.float 9.000000e-01
    %139 = torch.aten.mul.Scalar %arg9, %float9.000000e-01_132 : !torch.vtensor<[64],f32>, !torch.float -> !torch.vtensor<[64],f32>
    %int1_133 = torch.constant.int 1
    %140 = torch.aten.add.Tensor %138, %139, %int1_133 : !torch.vtensor<[64],f32>, !torch.vtensor<[64],f32>, !torch.int -> !torch.vtensor<[64],f32>
    %int3_134 = torch.constant.int 3
    %141 = torch.prim.ListConstruct %int3_134 : (!torch.int) -> !torch.list<int>
    %142 = torch.prims.squeeze %result0_123, %141 : !torch.vtensor<[1,64,1,1],f32>, !torch.list<int> -> !torch.vtensor<[1,64,1],f32>
    %int2_135 = torch.constant.int 2
    %143 = torch.prim.ListConstruct %int2_135 : (!torch.int) -> !torch.list<int>
    %144 = torch.prims.squeeze %142, %143 : !torch.vtensor<[1,64,1],f32>, !torch.list<int> -> !torch.vtensor<[1,64],f32>
    %int0_136 = torch.constant.int 0
    %145 = torch.prim.ListConstruct %int0_136 : (!torch.int) -> !torch.list<int>
    %146 = torch.prims.squeeze %144, %145 : !torch.vtensor<[1,64],f32>, !torch.list<int> -> !torch.vtensor<[64],f32>
    %float1.000020e00_137 = torch.constant.float 1.0000203454660128
    %147 = torch.aten.mul.Scalar %146, %float1.000020e00_137 : !torch.vtensor<[64],f32>, !torch.float -> !torch.vtensor<[64],f32>
    %float1.000000e-01_138 = torch.constant.float 1.000000e-01
    %148 = torch.aten.mul.Scalar %147, %float1.000000e-01_138 : !torch.vtensor<[64],f32>, !torch.float -> !torch.vtensor<[64],f32>
    %float9.000000e-01_139 = torch.constant.float 9.000000e-01
    %149 = torch.aten.mul.Scalar %arg10, %float9.000000e-01_139 : !torch.vtensor<[64],f32>, !torch.float -> !torch.vtensor<[64],f32>
    %int1_140 = torch.constant.int 1
    %150 = torch.aten.add.Tensor %148, %149, %int1_140 : !torch.vtensor<[64],f32>, !torch.vtensor<[64],f32>, !torch.int -> !torch.vtensor<[64],f32>
    %151 = torch.vtensor.literal(dense_resource<torch_tensor_64_torch.float32_4> : tensor<64xf32>) : !torch.vtensor<[64],f32>
    %int-1_141 = torch.constant.int -1
    %152 = torch.aten.unsqueeze %151, %int-1_141 : !torch.vtensor<[64],f32>, !torch.int -> !torch.vtensor<[64,1],f32>
    %int-1_142 = torch.constant.int -1
    %153 = torch.aten.unsqueeze %152, %int-1_142 : !torch.vtensor<[64,1],f32>, !torch.int -> !torch.vtensor<[64,1,1],f32>
    %154 = torch.aten.mul.Tensor %131, %153 : !torch.vtensor<[3,64,128,128],f32>, !torch.vtensor<[64,1,1],f32> -> !torch.vtensor<[3,64,128,128],f32>
    %155 = torch.vtensor.literal(dense_resource<torch_tensor_64_torch.float32_5> : tensor<64xf32>) : !torch.vtensor<[64],f32>
    %int-1_143 = torch.constant.int -1
    %156 = torch.aten.unsqueeze %155, %int-1_143 : !torch.vtensor<[64],f32>, !torch.int -> !torch.vtensor<[64,1],f32>
    %int-1_144 = torch.constant.int -1
    %157 = torch.aten.unsqueeze %156, %int-1_144 : !torch.vtensor<[64,1],f32>, !torch.int -> !torch.vtensor<[64,1,1],f32>
    %int1_145 = torch.constant.int 1
    %158 = torch.aten.add.Tensor %154, %157, %int1_145 : !torch.vtensor<[3,64,128,128],f32>, !torch.vtensor<[64,1,1],f32>, !torch.int -> !torch.vtensor<[3,64,128,128],f32>
    %159 = torch.aten.relu %158 : !torch.vtensor<[3,64,128,128],f32> -> !torch.vtensor<[3,64,128,128],f32>
    %160 = torch.vtensor.literal(dense_resource<torch_tensor_256_64_1_1_torch.float32_1> : tensor<256x64x1x1xf32>) : !torch.vtensor<[256,64,1,1],f32>
    %none_146 = torch.constant.none
    %int1_147 = torch.constant.int 1
    %int1_148 = torch.constant.int 1
    %161 = torch.prim.ListConstruct %int1_147, %int1_148 : (!torch.int, !torch.int) -> !torch.list<int>
    %int0_149 = torch.constant.int 0
    %int0_150 = torch.constant.int 0
    %162 = torch.prim.ListConstruct %int0_149, %int0_150 : (!torch.int, !torch.int) -> !torch.list<int>
    %int1_151 = torch.constant.int 1
    %int1_152 = torch.constant.int 1
    %163 = torch.prim.ListConstruct %int1_151, %int1_152 : (!torch.int, !torch.int) -> !torch.list<int>
    %int1_153 = torch.constant.int 1
    %164 = torch.aten.conv2d %159, %160, %none_146, %161, %162, %163, %int1_153 : !torch.vtensor<[3,64,128,128],f32>, !torch.vtensor<[256,64,1,1],f32>, !torch.none, !torch.list<int>, !torch.list<int>, !torch.list<int>, !torch.int -> !torch.vtensor<[3,256,128,128],f32>
    %int1_154 = torch.constant.int 1
    %int1_155 = torch.constant.int 1
    %165 = torch.aten.add.Scalar %arg14, %int1_154, %int1_155 : !torch.vtensor<[],si64>, !torch.int, !torch.int -> !torch.vtensor<[],si64>
    %int0_156 = torch.constant.int 0
    %int2_157 = torch.constant.int 2
    %int3_158 = torch.constant.int 3
    %166 = torch.prim.ListConstruct %int0_156, %int2_157, %int3_158 : (!torch.int, !torch.int, !torch.int) -> !torch.list<int>
    %int0_159 = torch.constant.int 0
    %true_160 = torch.constant.bool true
    %result0_161, %result1_162 = torch.aten.var_mean.correction %164, %166, %int0_159, %true_160 : !torch.vtensor<[3,256,128,128],f32>, !torch.list<int>, !torch.int, !torch.bool -> !torch.vtensor<[1,256,1,1],f32>, !torch.vtensor<[1,256,1,1],f32>
    %float1.000000e-05_163 = torch.constant.float 1.000000e-05
    %int1_164 = torch.constant.int 1
    %167 = torch.aten.add.Scalar %result0_161, %float1.000000e-05_163, %int1_164 : !torch.vtensor<[1,256,1,1],f32>, !torch.float, !torch.int -> !torch.vtensor<[1,256,1,1],f32>
    %168 = torch.aten.rsqrt %167 : !torch.vtensor<[1,256,1,1],f32> -> !torch.vtensor<[1,256,1,1],f32>
    %int1_165 = torch.constant.int 1
    %169 = torch.aten.sub.Tensor %164, %result1_162, %int1_165 : !torch.vtensor<[3,256,128,128],f32>, !torch.vtensor<[1,256,1,1],f32>, !torch.int -> !torch.vtensor<[3,256,128,128],f32>
    %170 = torch.aten.mul.Tensor %169, %168 : !torch.vtensor<[3,256,128,128],f32>, !torch.vtensor<[1,256,1,1],f32> -> !torch.vtensor<[3,256,128,128],f32>
    %int3_166 = torch.constant.int 3
    %171 = torch.prim.ListConstruct %int3_166 : (!torch.int) -> !torch.list<int>
    %172 = torch.prims.squeeze %result1_162, %171 : !torch.vtensor<[1,256,1,1],f32>, !torch.list<int> -> !torch.vtensor<[1,256,1],f32>
    %int2_167 = torch.constant.int 2
    %173 = torch.prim.ListConstruct %int2_167 : (!torch.int) -> !torch.list<int>
    %174 = torch.prims.squeeze %172, %173 : !torch.vtensor<[1,256,1],f32>, !torch.list<int> -> !torch.vtensor<[1,256],f32>
    %int0_168 = torch.constant.int 0
    %175 = torch.prim.ListConstruct %int0_168 : (!torch.int) -> !torch.list<int>
    %176 = torch.prims.squeeze %174, %175 : !torch.vtensor<[1,256],f32>, !torch.list<int> -> !torch.vtensor<[256],f32>
    %float1.000000e-01_169 = torch.constant.float 1.000000e-01
    %177 = torch.aten.mul.Scalar %176, %float1.000000e-01_169 : !torch.vtensor<[256],f32>, !torch.float -> !torch.vtensor<[256],f32>
    %float9.000000e-01_170 = torch.constant.float 9.000000e-01
    %178 = torch.aten.mul.Scalar %arg12, %float9.000000e-01_170 : !torch.vtensor<[256],f32>, !torch.float -> !torch.vtensor<[256],f32>
    %int1_171 = torch.constant.int 1
    %179 = torch.aten.add.Tensor %177, %178, %int1_171 : !torch.vtensor<[256],f32>, !torch.vtensor<[256],f32>, !torch.int -> !torch.vtensor<[256],f32>
    %int3_172 = torch.constant.int 3
    %180 = torch.prim.ListConstruct %int3_172 : (!torch.int) -> !torch.list<int>
    %181 = torch.prims.squeeze %result0_161, %180 : !torch.vtensor<[1,256,1,1],f32>, !torch.list<int> -> !torch.vtensor<[1,256,1],f32>
    %int2_173 = torch.constant.int 2
    %182 = torch.prim.ListConstruct %int2_173 : (!torch.int) -> !torch.list<int>
    %183 = torch.prims.squeeze %181, %182 : !torch.vtensor<[1,256,1],f32>, !torch.list<int> -> !torch.vtensor<[1,256],f32>
    %int0_174 = torch.constant.int 0
    %184 = torch.prim.ListConstruct %int0_174 : (!torch.int) -> !torch.list<int>
    %185 = torch.prims.squeeze %183, %184 : !torch.vtensor<[1,256],f32>, !torch.list<int> -> !torch.vtensor<[256],f32>
    %float1.000020e00_175 = torch.constant.float 1.0000203454660128
    %186 = torch.aten.mul.Scalar %185, %float1.000020e00_175 : !torch.vtensor<[256],f32>, !torch.float -> !torch.vtensor<[256],f32>
    %float1.000000e-01_176 = torch.constant.float 1.000000e-01
    %187 = torch.aten.mul.Scalar %186, %float1.000000e-01_176 : !torch.vtensor<[256],f32>, !torch.float -> !torch.vtensor<[256],f32>
    %float9.000000e-01_177 = torch.constant.float 9.000000e-01
    %188 = torch.aten.mul.Scalar %arg13, %float9.000000e-01_177 : !torch.vtensor<[256],f32>, !torch.float -> !torch.vtensor<[256],f32>
    %int1_178 = torch.constant.int 1
    %189 = torch.aten.add.Tensor %187, %188, %int1_178 : !torch.vtensor<[256],f32>, !torch.vtensor<[256],f32>, !torch.int -> !torch.vtensor<[256],f32>
    %190 = torch.vtensor.literal(dense_resource<torch_tensor_256_torch.float32_2> : tensor<256xf32>) : !torch.vtensor<[256],f32>
    %int-1_179 = torch.constant.int -1
    %191 = torch.aten.unsqueeze %190, %int-1_179 : !torch.vtensor<[256],f32>, !torch.int -> !torch.vtensor<[256,1],f32>
    %int-1_180 = torch.constant.int -1
    %192 = torch.aten.unsqueeze %191, %int-1_180 : !torch.vtensor<[256,1],f32>, !torch.int -> !torch.vtensor<[256,1,1],f32>
    %193 = torch.aten.mul.Tensor %170, %192 : !torch.vtensor<[3,256,128,128],f32>, !torch.vtensor<[256,1,1],f32> -> !torch.vtensor<[3,256,128,128],f32>
    %194 = torch.vtensor.literal(dense_resource<torch_tensor_256_torch.float32_3> : tensor<256xf32>) : !torch.vtensor<[256],f32>
    %int-1_181 = torch.constant.int -1
    %195 = torch.aten.unsqueeze %194, %int-1_181 : !torch.vtensor<[256],f32>, !torch.int -> !torch.vtensor<[256,1],f32>
    %int-1_182 = torch.constant.int -1
    %196 = torch.aten.unsqueeze %195, %int-1_182 : !torch.vtensor<[256,1],f32>, !torch.int -> !torch.vtensor<[256,1,1],f32>
    %int1_183 = torch.constant.int 1
    %197 = torch.aten.add.Tensor %193, %196, %int1_183 : !torch.vtensor<[3,256,128,128],f32>, !torch.vtensor<[256,1,1],f32>, !torch.int -> !torch.vtensor<[3,256,128,128],f32>
    %int1_184 = torch.constant.int 1
    %198 = torch.aten.add.Tensor %197, %81, %int1_184 : !torch.vtensor<[3,256,128,128],f32>, !torch.vtensor<[3,256,128,128],f32>, !torch.int -> !torch.vtensor<[3,256,128,128],f32>
    %199 = torch.aten.relu %198 : !torch.vtensor<[3,256,128,128],f32> -> !torch.vtensor<[3,256,128,128],f32>
    %200 = torch.vtensor.literal(dense_resource<torch_tensor_64_256_1_1_torch.float32> : tensor<64x256x1x1xf32>) : !torch.vtensor<[64,256,1,1],f32>
    %none_185 = torch.constant.none
    %int1_186 = torch.constant.int 1
    %int1_187 = torch.constant.int 1
    %201 = torch.prim.ListConstruct %int1_186, %int1_187 : (!torch.int, !torch.int) -> !torch.list<int>
    %int0_188 = torch.constant.int 0
    %int0_189 = torch.constant.int 0
    %202 = torch.prim.ListConstruct %int0_188, %int0_189 : (!torch.int, !torch.int) -> !torch.list<int>
    %int1_190 = torch.constant.int 1
    %int1_191 = torch.constant.int 1
    %203 = torch.prim.ListConstruct %int1_190, %int1_191 : (!torch.int, !torch.int) -> !torch.list<int>
    %int1_192 = torch.constant.int 1
    %204 = torch.aten.conv2d %199, %200, %none_185, %201, %202, %203, %int1_192 : !torch.vtensor<[3,256,128,128],f32>, !torch.vtensor<[64,256,1,1],f32>, !torch.none, !torch.list<int>, !torch.list<int>, !torch.list<int>, !torch.int -> !torch.vtensor<[3,64,128,128],f32>
    %int1_193 = torch.constant.int 1
    %int1_194 = torch.constant.int 1
    %205 = torch.aten.add.Scalar %arg17, %int1_193, %int1_194 : !torch.vtensor<[],si64>, !torch.int, !torch.int -> !torch.vtensor<[],si64>
    %int0_195 = torch.constant.int 0
    %int2_196 = torch.constant.int 2
    %int3_197 = torch.constant.int 3
    %206 = torch.prim.ListConstruct %int0_195, %int2_196, %int3_197 : (!torch.int, !torch.int, !torch.int) -> !torch.list<int>
    %int0_198 = torch.constant.int 0
    %true_199 = torch.constant.bool true
    %result0_200, %result1_201 = torch.aten.var_mean.correction %204, %206, %int0_198, %true_199 : !torch.vtensor<[3,64,128,128],f32>, !torch.list<int>, !torch.int, !torch.bool -> !torch.vtensor<[1,64,1,1],f32>, !torch.vtensor<[1,64,1,1],f32>
    %float1.000000e-05_202 = torch.constant.float 1.000000e-05
    %int1_203 = torch.constant.int 1
    %207 = torch.aten.add.Scalar %result0_200, %float1.000000e-05_202, %int1_203 : !torch.vtensor<[1,64,1,1],f32>, !torch.float, !torch.int -> !torch.vtensor<[1,64,1,1],f32>
    %208 = torch.aten.rsqrt %207 : !torch.vtensor<[1,64,1,1],f32> -> !torch.vtensor<[1,64,1,1],f32>
    %int1_204 = torch.constant.int 1
    %209 = torch.aten.sub.Tensor %204, %result1_201, %int1_204 : !torch.vtensor<[3,64,128,128],f32>, !torch.vtensor<[1,64,1,1],f32>, !torch.int -> !torch.vtensor<[3,64,128,128],f32>
    %210 = torch.aten.mul.Tensor %209, %208 : !torch.vtensor<[3,64,128,128],f32>, !torch.vtensor<[1,64,1,1],f32> -> !torch.vtensor<[3,64,128,128],f32>
    %int3_205 = torch.constant.int 3
    %211 = torch.prim.ListConstruct %int3_205 : (!torch.int) -> !torch.list<int>
    %212 = torch.prims.squeeze %result1_201, %211 : !torch.vtensor<[1,64,1,1],f32>, !torch.list<int> -> !torch.vtensor<[1,64,1],f32>
    %int2_206 = torch.constant.int 2
    %213 = torch.prim.ListConstruct %int2_206 : (!torch.int) -> !torch.list<int>
    %214 = torch.prims.squeeze %212, %213 : !torch.vtensor<[1,64,1],f32>, !torch.list<int> -> !torch.vtensor<[1,64],f32>
    %int0_207 = torch.constant.int 0
    %215 = torch.prim.ListConstruct %int0_207 : (!torch.int) -> !torch.list<int>
    %216 = torch.prims.squeeze %214, %215 : !torch.vtensor<[1,64],f32>, !torch.list<int> -> !torch.vtensor<[64],f32>
    %float1.000000e-01_208 = torch.constant.float 1.000000e-01
    %217 = torch.aten.mul.Scalar %216, %float1.000000e-01_208 : !torch.vtensor<[64],f32>, !torch.float -> !torch.vtensor<[64],f32>
    %float9.000000e-01_209 = torch.constant.float 9.000000e-01
    %218 = torch.aten.mul.Scalar %arg15, %float9.000000e-01_209 : !torch.vtensor<[64],f32>, !torch.float -> !torch.vtensor<[64],f32>
    %int1_210 = torch.constant.int 1
    %219 = torch.aten.add.Tensor %217, %218, %int1_210 : !torch.vtensor<[64],f32>, !torch.vtensor<[64],f32>, !torch.int -> !torch.vtensor<[64],f32>
    %int3_211 = torch.constant.int 3
    %220 = torch.prim.ListConstruct %int3_211 : (!torch.int) -> !torch.list<int>
    %221 = torch.prims.squeeze %result0_200, %220 : !torch.vtensor<[1,64,1,1],f32>, !torch.list<int> -> !torch.vtensor<[1,64,1],f32>
    %int2_212 = torch.constant.int 2
    %222 = torch.prim.ListConstruct %int2_212 : (!torch.int) -> !torch.list<int>
    %223 = torch.prims.squeeze %221, %222 : !torch.vtensor<[1,64,1],f32>, !torch.list<int> -> !torch.vtensor<[1,64],f32>
    %int0_213 = torch.constant.int 0
    %224 = torch.prim.ListConstruct %int0_213 : (!torch.int) -> !torch.list<int>
    %225 = torch.prims.squeeze %223, %224 : !torch.vtensor<[1,64],f32>, !torch.list<int> -> !torch.vtensor<[64],f32>
    %float1.000020e00_214 = torch.constant.float 1.0000203454660128
    %226 = torch.aten.mul.Scalar %225, %float1.000020e00_214 : !torch.vtensor<[64],f32>, !torch.float -> !torch.vtensor<[64],f32>
    %float1.000000e-01_215 = torch.constant.float 1.000000e-01
    %227 = torch.aten.mul.Scalar %226, %float1.000000e-01_215 : !torch.vtensor<[64],f32>, !torch.float -> !torch.vtensor<[64],f32>
    %float9.000000e-01_216 = torch.constant.float 9.000000e-01
    %228 = torch.aten.mul.Scalar %arg16, %float9.000000e-01_216 : !torch.vtensor<[64],f32>, !torch.float -> !torch.vtensor<[64],f32>
    %int1_217 = torch.constant.int 1
    %229 = torch.aten.add.Tensor %227, %228, %int1_217 : !torch.vtensor<[64],f32>, !torch.vtensor<[64],f32>, !torch.int -> !torch.vtensor<[64],f32>
    %230 = torch.vtensor.literal(dense_resource<torch_tensor_64_torch.float32_6> : tensor<64xf32>) : !torch.vtensor<[64],f32>
    %int-1_218 = torch.constant.int -1
    %231 = torch.aten.unsqueeze %230, %int-1_218 : !torch.vtensor<[64],f32>, !torch.int -> !torch.vtensor<[64,1],f32>
    %int-1_219 = torch.constant.int -1
    %232 = torch.aten.unsqueeze %231, %int-1_219 : !torch.vtensor<[64,1],f32>, !torch.int -> !torch.vtensor<[64,1,1],f32>
    %233 = torch.aten.mul.Tensor %210, %232 : !torch.vtensor<[3,64,128,128],f32>, !torch.vtensor<[64,1,1],f32> -> !torch.vtensor<[3,64,128,128],f32>
    %234 = torch.vtensor.literal(dense_resource<torch_tensor_64_torch.float32_7> : tensor<64xf32>) : !torch.vtensor<[64],f32>
    %int-1_220 = torch.constant.int -1
    %235 = torch.aten.unsqueeze %234, %int-1_220 : !torch.vtensor<[64],f32>, !torch.int -> !torch.vtensor<[64,1],f32>
    %int-1_221 = torch.constant.int -1
    %236 = torch.aten.unsqueeze %235, %int-1_221 : !torch.vtensor<[64,1],f32>, !torch.int -> !torch.vtensor<[64,1,1],f32>
    %int1_222 = torch.constant.int 1
    %237 = torch.aten.add.Tensor %233, %236, %int1_222 : !torch.vtensor<[3,64,128,128],f32>, !torch.vtensor<[64,1,1],f32>, !torch.int -> !torch.vtensor<[3,64,128,128],f32>
    %238 = torch.aten.relu %237 : !torch.vtensor<[3,64,128,128],f32> -> !torch.vtensor<[3,64,128,128],f32>
    %239 = torch.vtensor.literal(dense_resource<torch_tensor_64_64_3_3_torch.float32_1> : tensor<64x64x3x3xf32>) : !torch.vtensor<[64,64,3,3],f32>
    %none_223 = torch.constant.none
    %int1_224 = torch.constant.int 1
    %int1_225 = torch.constant.int 1
    %240 = torch.prim.ListConstruct %int1_224, %int1_225 : (!torch.int, !torch.int) -> !torch.list<int>
    %int1_226 = torch.constant.int 1
    %int1_227 = torch.constant.int 1
    %241 = torch.prim.ListConstruct %int1_226, %int1_227 : (!torch.int, !torch.int) -> !torch.list<int>
    %int1_228 = torch.constant.int 1
    %int1_229 = torch.constant.int 1
    %242 = torch.prim.ListConstruct %int1_228, %int1_229 : (!torch.int, !torch.int) -> !torch.list<int>
    %int1_230 = torch.constant.int 1
    %243 = torch.aten.conv2d %238, %239, %none_223, %240, %241, %242, %int1_230 : !torch.vtensor<[3,64,128,128],f32>, !torch.vtensor<[64,64,3,3],f32>, !torch.none, !torch.list<int>, !torch.list<int>, !torch.list<int>, !torch.int -> !torch.vtensor<[3,64,128,128],f32>
    %int1_231 = torch.constant.int 1
    %int1_232 = torch.constant.int 1
    %244 = torch.aten.add.Scalar %arg20, %int1_231, %int1_232 : !torch.vtensor<[],si64>, !torch.int, !torch.int -> !torch.vtensor<[],si64>
    %int0_233 = torch.constant.int 0
    %int2_234 = torch.constant.int 2
    %int3_235 = torch.constant.int 3
    %245 = torch.prim.ListConstruct %int0_233, %int2_234, %int3_235 : (!torch.int, !torch.int, !torch.int) -> !torch.list<int>
    %int0_236 = torch.constant.int 0
    %true_237 = torch.constant.bool true
    %result0_238, %result1_239 = torch.aten.var_mean.correction %243, %245, %int0_236, %true_237 : !torch.vtensor<[3,64,128,128],f32>, !torch.list<int>, !torch.int, !torch.bool -> !torch.vtensor<[1,64,1,1],f32>, !torch.vtensor<[1,64,1,1],f32>
    %float1.000000e-05_240 = torch.constant.float 1.000000e-05
    %int1_241 = torch.constant.int 1
    %246 = torch.aten.add.Scalar %result0_238, %float1.000000e-05_240, %int1_241 : !torch.vtensor<[1,64,1,1],f32>, !torch.float, !torch.int -> !torch.vtensor<[1,64,1,1],f32>
    %247 = torch.aten.rsqrt %246 : !torch.vtensor<[1,64,1,1],f32> -> !torch.vtensor<[1,64,1,1],f32>
    %int1_242 = torch.constant.int 1
    %248 = torch.aten.sub.Tensor %243, %result1_239, %int1_242 : !torch.vtensor<[3,64,128,128],f32>, !torch.vtensor<[1,64,1,1],f32>, !torch.int -> !torch.vtensor<[3,64,128,128],f32>
    %249 = torch.aten.mul.Tensor %248, %247 : !torch.vtensor<[3,64,128,128],f32>, !torch.vtensor<[1,64,1,1],f32> -> !torch.vtensor<[3,64,128,128],f32>
    %int3_243 = torch.constant.int 3
    %250 = torch.prim.ListConstruct %int3_243 : (!torch.int) -> !torch.list<int>
    %251 = torch.prims.squeeze %result1_239, %250 : !torch.vtensor<[1,64,1,1],f32>, !torch.list<int> -> !torch.vtensor<[1,64,1],f32>
    %int2_244 = torch.constant.int 2
    %252 = torch.prim.ListConstruct %int2_244 : (!torch.int) -> !torch.list<int>
    %253 = torch.prims.squeeze %251, %252 : !torch.vtensor<[1,64,1],f32>, !torch.list<int> -> !torch.vtensor<[1,64],f32>
    %int0_245 = torch.constant.int 0
    %254 = torch.prim.ListConstruct %int0_245 : (!torch.int) -> !torch.list<int>
    %255 = torch.prims.squeeze %253, %254 : !torch.vtensor<[1,64],f32>, !torch.list<int> -> !torch.vtensor<[64],f32>
    %float1.000000e-01_246 = torch.constant.float 1.000000e-01
    %256 = torch.aten.mul.Scalar %255, %float1.000000e-01_246 : !torch.vtensor<[64],f32>, !torch.float -> !torch.vtensor<[64],f32>
    %float9.000000e-01_247 = torch.constant.float 9.000000e-01
    %257 = torch.aten.mul.Scalar %arg18, %float9.000000e-01_247 : !torch.vtensor<[64],f32>, !torch.float -> !torch.vtensor<[64],f32>
    %int1_248 = torch.constant.int 1
    %258 = torch.aten.add.Tensor %256, %257, %int1_248 : !torch.vtensor<[64],f32>, !torch.vtensor<[64],f32>, !torch.int -> !torch.vtensor<[64],f32>
    %int3_249 = torch.constant.int 3
    %259 = torch.prim.ListConstruct %int3_249 : (!torch.int) -> !torch.list<int>
    %260 = torch.prims.squeeze %result0_238, %259 : !torch.vtensor<[1,64,1,1],f32>, !torch.list<int> -> !torch.vtensor<[1,64,1],f32>
    %int2_250 = torch.constant.int 2
    %261 = torch.prim.ListConstruct %int2_250 : (!torch.int) -> !torch.list<int>
    %262 = torch.prims.squeeze %260, %261 : !torch.vtensor<[1,64,1],f32>, !torch.list<int> -> !torch.vtensor<[1,64],f32>
    %int0_251 = torch.constant.int 0
    %263 = torch.prim.ListConstruct %int0_251 : (!torch.int) -> !torch.list<int>
    %264 = torch.prims.squeeze %262, %263 : !torch.vtensor<[1,64],f32>, !torch.list<int> -> !torch.vtensor<[64],f32>
    %float1.000020e00_252 = torch.constant.float 1.0000203454660128
    %265 = torch.aten.mul.Scalar %264, %float1.000020e00_252 : !torch.vtensor<[64],f32>, !torch.float -> !torch.vtensor<[64],f32>
    %float1.000000e-01_253 = torch.constant.float 1.000000e-01
    %266 = torch.aten.mul.Scalar %265, %float1.000000e-01_253 : !torch.vtensor<[64],f32>, !torch.float -> !torch.vtensor<[64],f32>
    %float9.000000e-01_254 = torch.constant.float 9.000000e-01
    %267 = torch.aten.mul.Scalar %arg19, %float9.000000e-01_254 : !torch.vtensor<[64],f32>, !torch.float -> !torch.vtensor<[64],f32>
    %int1_255 = torch.constant.int 1
    %268 = torch.aten.add.Tensor %266, %267, %int1_255 : !torch.vtensor<[64],f32>, !torch.vtensor<[64],f32>, !torch.int -> !torch.vtensor<[64],f32>
    %269 = torch.vtensor.literal(dense_resource<torch_tensor_64_torch.float32_8> : tensor<64xf32>) : !torch.vtensor<[64],f32>
    %int-1_256 = torch.constant.int -1
    %270 = torch.aten.unsqueeze %269, %int-1_256 : !torch.vtensor<[64],f32>, !torch.int -> !torch.vtensor<[64,1],f32>
    %int-1_257 = torch.constant.int -1
    %271 = torch.aten.unsqueeze %270, %int-1_257 : !torch.vtensor<[64,1],f32>, !torch.int -> !torch.vtensor<[64,1,1],f32>
    %272 = torch.aten.mul.Tensor %249, %271 : !torch.vtensor<[3,64,128,128],f32>, !torch.vtensor<[64,1,1],f32> -> !torch.vtensor<[3,64,128,128],f32>
    %273 = torch.vtensor.literal(dense_resource<torch_tensor_64_torch.float32_9> : tensor<64xf32>) : !torch.vtensor<[64],f32>
    %int-1_258 = torch.constant.int -1
    %274 = torch.aten.unsqueeze %273, %int-1_258 : !torch.vtensor<[64],f32>, !torch.int -> !torch.vtensor<[64,1],f32>
    %int-1_259 = torch.constant.int -1
    %275 = torch.aten.unsqueeze %274, %int-1_259 : !torch.vtensor<[64,1],f32>, !torch.int -> !torch.vtensor<[64,1,1],f32>
    %int1_260 = torch.constant.int 1
    %276 = torch.aten.add.Tensor %272, %275, %int1_260 : !torch.vtensor<[3,64,128,128],f32>, !torch.vtensor<[64,1,1],f32>, !torch.int -> !torch.vtensor<[3,64,128,128],f32>
    %277 = torch.aten.relu %276 : !torch.vtensor<[3,64,128,128],f32> -> !torch.vtensor<[3,64,128,128],f32>
    %278 = torch.vtensor.literal(dense_resource<torch_tensor_256_64_1_1_torch.float32_2> : tensor<256x64x1x1xf32>) : !torch.vtensor<[256,64,1,1],f32>
    %none_261 = torch.constant.none
    %int1_262 = torch.constant.int 1
    %int1_263 = torch.constant.int 1
    %279 = torch.prim.ListConstruct %int1_262, %int1_263 : (!torch.int, !torch.int) -> !torch.list<int>
    %int0_264 = torch.constant.int 0
    %int0_265 = torch.constant.int 0
    %280 = torch.prim.ListConstruct %int0_264, %int0_265 : (!torch.int, !torch.int) -> !torch.list<int>
    %int1_266 = torch.constant.int 1
    %int1_267 = torch.constant.int 1
    %281 = torch.prim.ListConstruct %int1_266, %int1_267 : (!torch.int, !torch.int) -> !torch.list<int>
    %int1_268 = torch.constant.int 1
    %282 = torch.aten.conv2d %277, %278, %none_261, %279, %280, %281, %int1_268 : !torch.vtensor<[3,64,128,128],f32>, !torch.vtensor<[256,64,1,1],f32>, !torch.none, !torch.list<int>, !torch.list<int>, !torch.list<int>, !torch.int -> !torch.vtensor<[3,256,128,128],f32>
    %int1_269 = torch.constant.int 1
    %int1_270 = torch.constant.int 1
    %283 = torch.aten.add.Scalar %arg23, %int1_269, %int1_270 : !torch.vtensor<[],si64>, !torch.int, !torch.int -> !torch.vtensor<[],si64>
    %int0_271 = torch.constant.int 0
    %int2_272 = torch.constant.int 2
    %int3_273 = torch.constant.int 3
    %284 = torch.prim.ListConstruct %int0_271, %int2_272, %int3_273 : (!torch.int, !torch.int, !torch.int) -> !torch.list<int>
    %int0_274 = torch.constant.int 0
    %true_275 = torch.constant.bool true
    %result0_276, %result1_277 = torch.aten.var_mean.correction %282, %284, %int0_274, %true_275 : !torch.vtensor<[3,256,128,128],f32>, !torch.list<int>, !torch.int, !torch.bool -> !torch.vtensor<[1,256,1,1],f32>, !torch.vtensor<[1,256,1,1],f32>
    %float1.000000e-05_278 = torch.constant.float 1.000000e-05
    %int1_279 = torch.constant.int 1
    %285 = torch.aten.add.Scalar %result0_276, %float1.000000e-05_278, %int1_279 : !torch.vtensor<[1,256,1,1],f32>, !torch.float, !torch.int -> !torch.vtensor<[1,256,1,1],f32>
    %286 = torch.aten.rsqrt %285 : !torch.vtensor<[1,256,1,1],f32> -> !torch.vtensor<[1,256,1,1],f32>
    %int1_280 = torch.constant.int 1
    %287 = torch.aten.sub.Tensor %282, %result1_277, %int1_280 : !torch.vtensor<[3,256,128,128],f32>, !torch.vtensor<[1,256,1,1],f32>, !torch.int -> !torch.vtensor<[3,256,128,128],f32>
    %288 = torch.aten.mul.Tensor %287, %286 : !torch.vtensor<[3,256,128,128],f32>, !torch.vtensor<[1,256,1,1],f32> -> !torch.vtensor<[3,256,128,128],f32>
    %int3_281 = torch.constant.int 3
    %289 = torch.prim.ListConstruct %int3_281 : (!torch.int) -> !torch.list<int>
    %290 = torch.prims.squeeze %result1_277, %289 : !torch.vtensor<[1,256,1,1],f32>, !torch.list<int> -> !torch.vtensor<[1,256,1],f32>
    %int2_282 = torch.constant.int 2
    %291 = torch.prim.ListConstruct %int2_282 : (!torch.int) -> !torch.list<int>
    %292 = torch.prims.squeeze %290, %291 : !torch.vtensor<[1,256,1],f32>, !torch.list<int> -> !torch.vtensor<[1,256],f32>
    %int0_283 = torch.constant.int 0
    %293 = torch.prim.ListConstruct %int0_283 : (!torch.int) -> !torch.list<int>
    %294 = torch.prims.squeeze %292, %293 : !torch.vtensor<[1,256],f32>, !torch.list<int> -> !torch.vtensor<[256],f32>
    %float1.000000e-01_284 = torch.constant.float 1.000000e-01
    %295 = torch.aten.mul.Scalar %294, %float1.000000e-01_284 : !torch.vtensor<[256],f32>, !torch.float -> !torch.vtensor<[256],f32>
    %float9.000000e-01_285 = torch.constant.float 9.000000e-01
    %296 = torch.aten.mul.Scalar %arg21, %float9.000000e-01_285 : !torch.vtensor<[256],f32>, !torch.float -> !torch.vtensor<[256],f32>
    %int1_286 = torch.constant.int 1
    %297 = torch.aten.add.Tensor %295, %296, %int1_286 : !torch.vtensor<[256],f32>, !torch.vtensor<[256],f32>, !torch.int -> !torch.vtensor<[256],f32>
    %int3_287 = torch.constant.int 3
    %298 = torch.prim.ListConstruct %int3_287 : (!torch.int) -> !torch.list<int>
    %299 = torch.prims.squeeze %result0_276, %298 : !torch.vtensor<[1,256,1,1],f32>, !torch.list<int> -> !torch.vtensor<[1,256,1],f32>
    %int2_288 = torch.constant.int 2
    %300 = torch.prim.ListConstruct %int2_288 : (!torch.int) -> !torch.list<int>
    %301 = torch.prims.squeeze %299, %300 : !torch.vtensor<[1,256,1],f32>, !torch.list<int> -> !torch.vtensor<[1,256],f32>
    %int0_289 = torch.constant.int 0
    %302 = torch.prim.ListConstruct %int0_289 : (!torch.int) -> !torch.list<int>
    %303 = torch.prims.squeeze %301, %302 : !torch.vtensor<[1,256],f32>, !torch.list<int> -> !torch.vtensor<[256],f32>
    %float1.000020e00_290 = torch.constant.float 1.0000203454660128
    %304 = torch.aten.mul.Scalar %303, %float1.000020e00_290 : !torch.vtensor<[256],f32>, !torch.float -> !torch.vtensor<[256],f32>
    %float1.000000e-01_291 = torch.constant.float 1.000000e-01
    %305 = torch.aten.mul.Scalar %304, %float1.000000e-01_291 : !torch.vtensor<[256],f32>, !torch.float -> !torch.vtensor<[256],f32>
    %float9.000000e-01_292 = torch.constant.float 9.000000e-01
    %306 = torch.aten.mul.Scalar %arg22, %float9.000000e-01_292 : !torch.vtensor<[256],f32>, !torch.float -> !torch.vtensor<[256],f32>
    %int1_293 = torch.constant.int 1
    %307 = torch.aten.add.Tensor %305, %306, %int1_293 : !torch.vtensor<[256],f32>, !torch.vtensor<[256],f32>, !torch.int -> !torch.vtensor<[256],f32>
    %308 = torch.vtensor.literal(dense_resource<torch_tensor_256_torch.float32_4> : tensor<256xf32>) : !torch.vtensor<[256],f32>
    %int-1_294 = torch.constant.int -1
    %309 = torch.aten.unsqueeze %308, %int-1_294 : !torch.vtensor<[256],f32>, !torch.int -> !torch.vtensor<[256,1],f32>
    %int-1_295 = torch.constant.int -1
    %310 = torch.aten.unsqueeze %309, %int-1_295 : !torch.vtensor<[256,1],f32>, !torch.int -> !torch.vtensor<[256,1,1],f32>
    %311 = torch.aten.mul.Tensor %288, %310 : !torch.vtensor<[3,256,128,128],f32>, !torch.vtensor<[256,1,1],f32> -> !torch.vtensor<[3,256,128,128],f32>
    %312 = torch.vtensor.literal(dense_resource<torch_tensor_256_torch.float32_5> : tensor<256xf32>) : !torch.vtensor<[256],f32>
    %int-1_296 = torch.constant.int -1
    %313 = torch.aten.unsqueeze %312, %int-1_296 : !torch.vtensor<[256],f32>, !torch.int -> !torch.vtensor<[256,1],f32>
    %int-1_297 = torch.constant.int -1
    %314 = torch.aten.unsqueeze %313, %int-1_297 : !torch.vtensor<[256,1],f32>, !torch.int -> !torch.vtensor<[256,1,1],f32>
    %int1_298 = torch.constant.int 1
    %315 = torch.aten.add.Tensor %311, %314, %int1_298 : !torch.vtensor<[3,256,128,128],f32>, !torch.vtensor<[256,1,1],f32>, !torch.int -> !torch.vtensor<[3,256,128,128],f32>
    %int1_299 = torch.constant.int 1
    %316 = torch.aten.add.Tensor %315, %199, %int1_299 : !torch.vtensor<[3,256,128,128],f32>, !torch.vtensor<[3,256,128,128],f32>, !torch.int -> !torch.vtensor<[3,256,128,128],f32>
    %317 = torch.aten.relu %316 : !torch.vtensor<[3,256,128,128],f32> -> !torch.vtensor<[3,256,128,128],f32>
    %318 = torch.vtensor.literal(dense_resource<torch_tensor_64_256_1_1_torch.float32_1> : tensor<64x256x1x1xf32>) : !torch.vtensor<[64,256,1,1],f32>
    %none_300 = torch.constant.none
    %int1_301 = torch.constant.int 1
    %int1_302 = torch.constant.int 1
    %319 = torch.prim.ListConstruct %int1_301, %int1_302 : (!torch.int, !torch.int) -> !torch.list<int>
    %int0_303 = torch.constant.int 0
    %int0_304 = torch.constant.int 0
    %320 = torch.prim.ListConstruct %int0_303, %int0_304 : (!torch.int, !torch.int) -> !torch.list<int>
    %int1_305 = torch.constant.int 1
    %int1_306 = torch.constant.int 1
    %321 = torch.prim.ListConstruct %int1_305, %int1_306 : (!torch.int, !torch.int) -> !torch.list<int>
    %int1_307 = torch.constant.int 1
    %322 = torch.aten.conv2d %317, %318, %none_300, %319, %320, %321, %int1_307 : !torch.vtensor<[3,256,128,128],f32>, !torch.vtensor<[64,256,1,1],f32>, !torch.none, !torch.list<int>, !torch.list<int>, !torch.list<int>, !torch.int -> !torch.vtensor<[3,64,128,128],f32>
    %int1_308 = torch.constant.int 1
    %int1_309 = torch.constant.int 1
    %323 = torch.aten.add.Scalar %arg26, %int1_308, %int1_309 : !torch.vtensor<[],si64>, !torch.int, !torch.int -> !torch.vtensor<[],si64>
    %int0_310 = torch.constant.int 0
    %int2_311 = torch.constant.int 2
    %int3_312 = torch.constant.int 3
    %324 = torch.prim.ListConstruct %int0_310, %int2_311, %int3_312 : (!torch.int, !torch.int, !torch.int) -> !torch.list<int>
    %int0_313 = torch.constant.int 0
    %true_314 = torch.constant.bool true
    %result0_315, %result1_316 = torch.aten.var_mean.correction %322, %324, %int0_313, %true_314 : !torch.vtensor<[3,64,128,128],f32>, !torch.list<int>, !torch.int, !torch.bool -> !torch.vtensor<[1,64,1,1],f32>, !torch.vtensor<[1,64,1,1],f32>
    %float1.000000e-05_317 = torch.constant.float 1.000000e-05
    %int1_318 = torch.constant.int 1
    %325 = torch.aten.add.Scalar %result0_315, %float1.000000e-05_317, %int1_318 : !torch.vtensor<[1,64,1,1],f32>, !torch.float, !torch.int -> !torch.vtensor<[1,64,1,1],f32>
    %326 = torch.aten.rsqrt %325 : !torch.vtensor<[1,64,1,1],f32> -> !torch.vtensor<[1,64,1,1],f32>
    %int1_319 = torch.constant.int 1
    %327 = torch.aten.sub.Tensor %322, %result1_316, %int1_319 : !torch.vtensor<[3,64,128,128],f32>, !torch.vtensor<[1,64,1,1],f32>, !torch.int -> !torch.vtensor<[3,64,128,128],f32>
    %328 = torch.aten.mul.Tensor %327, %326 : !torch.vtensor<[3,64,128,128],f32>, !torch.vtensor<[1,64,1,1],f32> -> !torch.vtensor<[3,64,128,128],f32>
    %int3_320 = torch.constant.int 3
    %329 = torch.prim.ListConstruct %int3_320 : (!torch.int) -> !torch.list<int>
    %330 = torch.prims.squeeze %result1_316, %329 : !torch.vtensor<[1,64,1,1],f32>, !torch.list<int> -> !torch.vtensor<[1,64,1],f32>
    %int2_321 = torch.constant.int 2
    %331 = torch.prim.ListConstruct %int2_321 : (!torch.int) -> !torch.list<int>
    %332 = torch.prims.squeeze %330, %331 : !torch.vtensor<[1,64,1],f32>, !torch.list<int> -> !torch.vtensor<[1,64],f32>
    %int0_322 = torch.constant.int 0
    %333 = torch.prim.ListConstruct %int0_322 : (!torch.int) -> !torch.list<int>
    %334 = torch.prims.squeeze %332, %333 : !torch.vtensor<[1,64],f32>, !torch.list<int> -> !torch.vtensor<[64],f32>
    %float1.000000e-01_323 = torch.constant.float 1.000000e-01
    %335 = torch.aten.mul.Scalar %334, %float1.000000e-01_323 : !torch.vtensor<[64],f32>, !torch.float -> !torch.vtensor<[64],f32>
    %float9.000000e-01_324 = torch.constant.float 9.000000e-01
    %336 = torch.aten.mul.Scalar %arg24, %float9.000000e-01_324 : !torch.vtensor<[64],f32>, !torch.float -> !torch.vtensor<[64],f32>
    %int1_325 = torch.constant.int 1
    %337 = torch.aten.add.Tensor %335, %336, %int1_325 : !torch.vtensor<[64],f32>, !torch.vtensor<[64],f32>, !torch.int -> !torch.vtensor<[64],f32>
    %int3_326 = torch.constant.int 3
    %338 = torch.prim.ListConstruct %int3_326 : (!torch.int) -> !torch.list<int>
    %339 = torch.prims.squeeze %result0_315, %338 : !torch.vtensor<[1,64,1,1],f32>, !torch.list<int> -> !torch.vtensor<[1,64,1],f32>
    %int2_327 = torch.constant.int 2
    %340 = torch.prim.ListConstruct %int2_327 : (!torch.int) -> !torch.list<int>
    %341 = torch.prims.squeeze %339, %340 : !torch.vtensor<[1,64,1],f32>, !torch.list<int> -> !torch.vtensor<[1,64],f32>
    %int0_328 = torch.constant.int 0
    %342 = torch.prim.ListConstruct %int0_328 : (!torch.int) -> !torch.list<int>
    %343 = torch.prims.squeeze %341, %342 : !torch.vtensor<[1,64],f32>, !torch.list<int> -> !torch.vtensor<[64],f32>
    %float1.000020e00_329 = torch.constant.float 1.0000203454660128
    %344 = torch.aten.mul.Scalar %343, %float1.000020e00_329 : !torch.vtensor<[64],f32>, !torch.float -> !torch.vtensor<[64],f32>
    %float1.000000e-01_330 = torch.constant.float 1.000000e-01
    %345 = torch.aten.mul.Scalar %344, %float1.000000e-01_330 : !torch.vtensor<[64],f32>, !torch.float -> !torch.vtensor<[64],f32>
    %float9.000000e-01_331 = torch.constant.float 9.000000e-01
    %346 = torch.aten.mul.Scalar %arg25, %float9.000000e-01_331 : !torch.vtensor<[64],f32>, !torch.float -> !torch.vtensor<[64],f32>
    %int1_332 = torch.constant.int 1
    %347 = torch.aten.add.Tensor %345, %346, %int1_332 : !torch.vtensor<[64],f32>, !torch.vtensor<[64],f32>, !torch.int -> !torch.vtensor<[64],f32>
    %348 = torch.vtensor.literal(dense_resource<torch_tensor_64_torch.float32_10> : tensor<64xf32>) : !torch.vtensor<[64],f32>
    %int-1_333 = torch.constant.int -1
    %349 = torch.aten.unsqueeze %348, %int-1_333 : !torch.vtensor<[64],f32>, !torch.int -> !torch.vtensor<[64,1],f32>
    %int-1_334 = torch.constant.int -1
    %350 = torch.aten.unsqueeze %349, %int-1_334 : !torch.vtensor<[64,1],f32>, !torch.int -> !torch.vtensor<[64,1,1],f32>
    %351 = torch.aten.mul.Tensor %328, %350 : !torch.vtensor<[3,64,128,128],f32>, !torch.vtensor<[64,1,1],f32> -> !torch.vtensor<[3,64,128,128],f32>
    %352 = torch.vtensor.literal(dense_resource<torch_tensor_64_torch.float32_11> : tensor<64xf32>) : !torch.vtensor<[64],f32>
    %int-1_335 = torch.constant.int -1
    %353 = torch.aten.unsqueeze %352, %int-1_335 : !torch.vtensor<[64],f32>, !torch.int -> !torch.vtensor<[64,1],f32>
    %int-1_336 = torch.constant.int -1
    %354 = torch.aten.unsqueeze %353, %int-1_336 : !torch.vtensor<[64,1],f32>, !torch.int -> !torch.vtensor<[64,1,1],f32>
    %int1_337 = torch.constant.int 1
    %355 = torch.aten.add.Tensor %351, %354, %int1_337 : !torch.vtensor<[3,64,128,128],f32>, !torch.vtensor<[64,1,1],f32>, !torch.int -> !torch.vtensor<[3,64,128,128],f32>
    %356 = torch.aten.relu %355 : !torch.vtensor<[3,64,128,128],f32> -> !torch.vtensor<[3,64,128,128],f32>
    %357 = torch.vtensor.literal(dense_resource<torch_tensor_64_64_3_3_torch.float32_2> : tensor<64x64x3x3xf32>) : !torch.vtensor<[64,64,3,3],f32>
    %none_338 = torch.constant.none
    %int1_339 = torch.constant.int 1
    %int1_340 = torch.constant.int 1
    %358 = torch.prim.ListConstruct %int1_339, %int1_340 : (!torch.int, !torch.int) -> !torch.list<int>
    %int1_341 = torch.constant.int 1
    %int1_342 = torch.constant.int 1
    %359 = torch.prim.ListConstruct %int1_341, %int1_342 : (!torch.int, !torch.int) -> !torch.list<int>
    %int1_343 = torch.constant.int 1
    %int1_344 = torch.constant.int 1
    %360 = torch.prim.ListConstruct %int1_343, %int1_344 : (!torch.int, !torch.int) -> !torch.list<int>
    %int1_345 = torch.constant.int 1
    %361 = torch.aten.conv2d %356, %357, %none_338, %358, %359, %360, %int1_345 : !torch.vtensor<[3,64,128,128],f32>, !torch.vtensor<[64,64,3,3],f32>, !torch.none, !torch.list<int>, !torch.list<int>, !torch.list<int>, !torch.int -> !torch.vtensor<[3,64,128,128],f32>
    %int1_346 = torch.constant.int 1
    %int1_347 = torch.constant.int 1
    %362 = torch.aten.add.Scalar %arg29, %int1_346, %int1_347 : !torch.vtensor<[],si64>, !torch.int, !torch.int -> !torch.vtensor<[],si64>
    %int0_348 = torch.constant.int 0
    %int2_349 = torch.constant.int 2
    %int3_350 = torch.constant.int 3
    %363 = torch.prim.ListConstruct %int0_348, %int2_349, %int3_350 : (!torch.int, !torch.int, !torch.int) -> !torch.list<int>
    %int0_351 = torch.constant.int 0
    %true_352 = torch.constant.bool true
    %result0_353, %result1_354 = torch.aten.var_mean.correction %361, %363, %int0_351, %true_352 : !torch.vtensor<[3,64,128,128],f32>, !torch.list<int>, !torch.int, !torch.bool -> !torch.vtensor<[1,64,1,1],f32>, !torch.vtensor<[1,64,1,1],f32>
    %float1.000000e-05_355 = torch.constant.float 1.000000e-05
    %int1_356 = torch.constant.int 1
    %364 = torch.aten.add.Scalar %result0_353, %float1.000000e-05_355, %int1_356 : !torch.vtensor<[1,64,1,1],f32>, !torch.float, !torch.int -> !torch.vtensor<[1,64,1,1],f32>
    %365 = torch.aten.rsqrt %364 : !torch.vtensor<[1,64,1,1],f32> -> !torch.vtensor<[1,64,1,1],f32>
    %int1_357 = torch.constant.int 1
    %366 = torch.aten.sub.Tensor %361, %result1_354, %int1_357 : !torch.vtensor<[3,64,128,128],f32>, !torch.vtensor<[1,64,1,1],f32>, !torch.int -> !torch.vtensor<[3,64,128,128],f32>
    %367 = torch.aten.mul.Tensor %366, %365 : !torch.vtensor<[3,64,128,128],f32>, !torch.vtensor<[1,64,1,1],f32> -> !torch.vtensor<[3,64,128,128],f32>
    %int3_358 = torch.constant.int 3
    %368 = torch.prim.ListConstruct %int3_358 : (!torch.int) -> !torch.list<int>
    %369 = torch.prims.squeeze %result1_354, %368 : !torch.vtensor<[1,64,1,1],f32>, !torch.list<int> -> !torch.vtensor<[1,64,1],f32>
    %int2_359 = torch.constant.int 2
    %370 = torch.prim.ListConstruct %int2_359 : (!torch.int) -> !torch.list<int>
    %371 = torch.prims.squeeze %369, %370 : !torch.vtensor<[1,64,1],f32>, !torch.list<int> -> !torch.vtensor<[1,64],f32>
    %int0_360 = torch.constant.int 0
    %372 = torch.prim.ListConstruct %int0_360 : (!torch.int) -> !torch.list<int>
    %373 = torch.prims.squeeze %371, %372 : !torch.vtensor<[1,64],f32>, !torch.list<int> -> !torch.vtensor<[64],f32>
    %float1.000000e-01_361 = torch.constant.float 1.000000e-01
    %374 = torch.aten.mul.Scalar %373, %float1.000000e-01_361 : !torch.vtensor<[64],f32>, !torch.float -> !torch.vtensor<[64],f32>
    %float9.000000e-01_362 = torch.constant.float 9.000000e-01
    %375 = torch.aten.mul.Scalar %arg27, %float9.000000e-01_362 : !torch.vtensor<[64],f32>, !torch.float -> !torch.vtensor<[64],f32>
    %int1_363 = torch.constant.int 1
    %376 = torch.aten.add.Tensor %374, %375, %int1_363 : !torch.vtensor<[64],f32>, !torch.vtensor<[64],f32>, !torch.int -> !torch.vtensor<[64],f32>
    %int3_364 = torch.constant.int 3
    %377 = torch.prim.ListConstruct %int3_364 : (!torch.int) -> !torch.list<int>
    %378 = torch.prims.squeeze %result0_353, %377 : !torch.vtensor<[1,64,1,1],f32>, !torch.list<int> -> !torch.vtensor<[1,64,1],f32>
    %int2_365 = torch.constant.int 2
    %379 = torch.prim.ListConstruct %int2_365 : (!torch.int) -> !torch.list<int>
    %380 = torch.prims.squeeze %378, %379 : !torch.vtensor<[1,64,1],f32>, !torch.list<int> -> !torch.vtensor<[1,64],f32>
    %int0_366 = torch.constant.int 0
    %381 = torch.prim.ListConstruct %int0_366 : (!torch.int) -> !torch.list<int>
    %382 = torch.prims.squeeze %380, %381 : !torch.vtensor<[1,64],f32>, !torch.list<int> -> !torch.vtensor<[64],f32>
    %float1.000020e00_367 = torch.constant.float 1.0000203454660128
    %383 = torch.aten.mul.Scalar %382, %float1.000020e00_367 : !torch.vtensor<[64],f32>, !torch.float -> !torch.vtensor<[64],f32>
    %float1.000000e-01_368 = torch.constant.float 1.000000e-01
    %384 = torch.aten.mul.Scalar %383, %float1.000000e-01_368 : !torch.vtensor<[64],f32>, !torch.float -> !torch.vtensor<[64],f32>
    %float9.000000e-01_369 = torch.constant.float 9.000000e-01
    %385 = torch.aten.mul.Scalar %arg28, %float9.000000e-01_369 : !torch.vtensor<[64],f32>, !torch.float -> !torch.vtensor<[64],f32>
    %int1_370 = torch.constant.int 1
    %386 = torch.aten.add.Tensor %384, %385, %int1_370 : !torch.vtensor<[64],f32>, !torch.vtensor<[64],f32>, !torch.int -> !torch.vtensor<[64],f32>
    %387 = torch.vtensor.literal(dense_resource<torch_tensor_64_torch.float32_12> : tensor<64xf32>) : !torch.vtensor<[64],f32>
    %int-1_371 = torch.constant.int -1
    %388 = torch.aten.unsqueeze %387, %int-1_371 : !torch.vtensor<[64],f32>, !torch.int -> !torch.vtensor<[64,1],f32>
    %int-1_372 = torch.constant.int -1
    %389 = torch.aten.unsqueeze %388, %int-1_372 : !torch.vtensor<[64,1],f32>, !torch.int -> !torch.vtensor<[64,1,1],f32>
    %390 = torch.aten.mul.Tensor %367, %389 : !torch.vtensor<[3,64,128,128],f32>, !torch.vtensor<[64,1,1],f32> -> !torch.vtensor<[3,64,128,128],f32>
    %391 = torch.vtensor.literal(dense_resource<torch_tensor_64_torch.float32_13> : tensor<64xf32>) : !torch.vtensor<[64],f32>
    %int-1_373 = torch.constant.int -1
    %392 = torch.aten.unsqueeze %391, %int-1_373 : !torch.vtensor<[64],f32>, !torch.int -> !torch.vtensor<[64,1],f32>
    %int-1_374 = torch.constant.int -1
    %393 = torch.aten.unsqueeze %392, %int-1_374 : !torch.vtensor<[64,1],f32>, !torch.int -> !torch.vtensor<[64,1,1],f32>
    %int1_375 = torch.constant.int 1
    %394 = torch.aten.add.Tensor %390, %393, %int1_375 : !torch.vtensor<[3,64,128,128],f32>, !torch.vtensor<[64,1,1],f32>, !torch.int -> !torch.vtensor<[3,64,128,128],f32>
    %395 = torch.aten.relu %394 : !torch.vtensor<[3,64,128,128],f32> -> !torch.vtensor<[3,64,128,128],f32>
    %396 = torch.vtensor.literal(dense_resource<torch_tensor_256_64_1_1_torch.float32_3> : tensor<256x64x1x1xf32>) : !torch.vtensor<[256,64,1,1],f32>
    %none_376 = torch.constant.none
    %int1_377 = torch.constant.int 1
    %int1_378 = torch.constant.int 1
    %397 = torch.prim.ListConstruct %int1_377, %int1_378 : (!torch.int, !torch.int) -> !torch.list<int>
    %int0_379 = torch.constant.int 0
    %int0_380 = torch.constant.int 0
    %398 = torch.prim.ListConstruct %int0_379, %int0_380 : (!torch.int, !torch.int) -> !torch.list<int>
    %int1_381 = torch.constant.int 1
    %int1_382 = torch.constant.int 1
    %399 = torch.prim.ListConstruct %int1_381, %int1_382 : (!torch.int, !torch.int) -> !torch.list<int>
    %int1_383 = torch.constant.int 1
    %400 = torch.aten.conv2d %395, %396, %none_376, %397, %398, %399, %int1_383 : !torch.vtensor<[3,64,128,128],f32>, !torch.vtensor<[256,64,1,1],f32>, !torch.none, !torch.list<int>, !torch.list<int>, !torch.list<int>, !torch.int -> !torch.vtensor<[3,256,128,128],f32>
    %int1_384 = torch.constant.int 1
    %int1_385 = torch.constant.int 1
    %401 = torch.aten.add.Scalar %arg32, %int1_384, %int1_385 : !torch.vtensor<[],si64>, !torch.int, !torch.int -> !torch.vtensor<[],si64>
    %int0_386 = torch.constant.int 0
    %int2_387 = torch.constant.int 2
    %int3_388 = torch.constant.int 3
    %402 = torch.prim.ListConstruct %int0_386, %int2_387, %int3_388 : (!torch.int, !torch.int, !torch.int) -> !torch.list<int>
    %int0_389 = torch.constant.int 0
    %true_390 = torch.constant.bool true
    %result0_391, %result1_392 = torch.aten.var_mean.correction %400, %402, %int0_389, %true_390 : !torch.vtensor<[3,256,128,128],f32>, !torch.list<int>, !torch.int, !torch.bool -> !torch.vtensor<[1,256,1,1],f32>, !torch.vtensor<[1,256,1,1],f32>
    %float1.000000e-05_393 = torch.constant.float 1.000000e-05
    %int1_394 = torch.constant.int 1
    %403 = torch.aten.add.Scalar %result0_391, %float1.000000e-05_393, %int1_394 : !torch.vtensor<[1,256,1,1],f32>, !torch.float, !torch.int -> !torch.vtensor<[1,256,1,1],f32>
    %404 = torch.aten.rsqrt %403 : !torch.vtensor<[1,256,1,1],f32> -> !torch.vtensor<[1,256,1,1],f32>
    %int1_395 = torch.constant.int 1
    %405 = torch.aten.sub.Tensor %400, %result1_392, %int1_395 : !torch.vtensor<[3,256,128,128],f32>, !torch.vtensor<[1,256,1,1],f32>, !torch.int -> !torch.vtensor<[3,256,128,128],f32>
    %406 = torch.aten.mul.Tensor %405, %404 : !torch.vtensor<[3,256,128,128],f32>, !torch.vtensor<[1,256,1,1],f32> -> !torch.vtensor<[3,256,128,128],f32>
    %int3_396 = torch.constant.int 3
    %407 = torch.prim.ListConstruct %int3_396 : (!torch.int) -> !torch.list<int>
    %408 = torch.prims.squeeze %result1_392, %407 : !torch.vtensor<[1,256,1,1],f32>, !torch.list<int> -> !torch.vtensor<[1,256,1],f32>
    %int2_397 = torch.constant.int 2
    %409 = torch.prim.ListConstruct %int2_397 : (!torch.int) -> !torch.list<int>
    %410 = torch.prims.squeeze %408, %409 : !torch.vtensor<[1,256,1],f32>, !torch.list<int> -> !torch.vtensor<[1,256],f32>
    %int0_398 = torch.constant.int 0
    %411 = torch.prim.ListConstruct %int0_398 : (!torch.int) -> !torch.list<int>
    %412 = torch.prims.squeeze %410, %411 : !torch.vtensor<[1,256],f32>, !torch.list<int> -> !torch.vtensor<[256],f32>
    %float1.000000e-01_399 = torch.constant.float 1.000000e-01
    %413 = torch.aten.mul.Scalar %412, %float1.000000e-01_399 : !torch.vtensor<[256],f32>, !torch.float -> !torch.vtensor<[256],f32>
    %float9.000000e-01_400 = torch.constant.float 9.000000e-01
    %414 = torch.aten.mul.Scalar %arg30, %float9.000000e-01_400 : !torch.vtensor<[256],f32>, !torch.float -> !torch.vtensor<[256],f32>
    %int1_401 = torch.constant.int 1
    %415 = torch.aten.add.Tensor %413, %414, %int1_401 : !torch.vtensor<[256],f32>, !torch.vtensor<[256],f32>, !torch.int -> !torch.vtensor<[256],f32>
    %int3_402 = torch.constant.int 3
    %416 = torch.prim.ListConstruct %int3_402 : (!torch.int) -> !torch.list<int>
    %417 = torch.prims.squeeze %result0_391, %416 : !torch.vtensor<[1,256,1,1],f32>, !torch.list<int> -> !torch.vtensor<[1,256,1],f32>
    %int2_403 = torch.constant.int 2
    %418 = torch.prim.ListConstruct %int2_403 : (!torch.int) -> !torch.list<int>
    %419 = torch.prims.squeeze %417, %418 : !torch.vtensor<[1,256,1],f32>, !torch.list<int> -> !torch.vtensor<[1,256],f32>
    %int0_404 = torch.constant.int 0
    %420 = torch.prim.ListConstruct %int0_404 : (!torch.int) -> !torch.list<int>
    %421 = torch.prims.squeeze %419, %420 : !torch.vtensor<[1,256],f32>, !torch.list<int> -> !torch.vtensor<[256],f32>
    %float1.000020e00_405 = torch.constant.float 1.0000203454660128
    %422 = torch.aten.mul.Scalar %421, %float1.000020e00_405 : !torch.vtensor<[256],f32>, !torch.float -> !torch.vtensor<[256],f32>
    %float1.000000e-01_406 = torch.constant.float 1.000000e-01
    %423 = torch.aten.mul.Scalar %422, %float1.000000e-01_406 : !torch.vtensor<[256],f32>, !torch.float -> !torch.vtensor<[256],f32>
    %float9.000000e-01_407 = torch.constant.float 9.000000e-01
    %424 = torch.aten.mul.Scalar %arg31, %float9.000000e-01_407 : !torch.vtensor<[256],f32>, !torch.float -> !torch.vtensor<[256],f32>
    %int1_408 = torch.constant.int 1
    %425 = torch.aten.add.Tensor %423, %424, %int1_408 : !torch.vtensor<[256],f32>, !torch.vtensor<[256],f32>, !torch.int -> !torch.vtensor<[256],f32>
    %426 = torch.vtensor.literal(dense_resource<torch_tensor_256_torch.float32_6> : tensor<256xf32>) : !torch.vtensor<[256],f32>
    %int-1_409 = torch.constant.int -1
    %427 = torch.aten.unsqueeze %426, %int-1_409 : !torch.vtensor<[256],f32>, !torch.int -> !torch.vtensor<[256,1],f32>
    %int-1_410 = torch.constant.int -1
    %428 = torch.aten.unsqueeze %427, %int-1_410 : !torch.vtensor<[256,1],f32>, !torch.int -> !torch.vtensor<[256,1,1],f32>
    %429 = torch.aten.mul.Tensor %406, %428 : !torch.vtensor<[3,256,128,128],f32>, !torch.vtensor<[256,1,1],f32> -> !torch.vtensor<[3,256,128,128],f32>
    %430 = torch.vtensor.literal(dense_resource<torch_tensor_256_torch.float32_7> : tensor<256xf32>) : !torch.vtensor<[256],f32>
    %int-1_411 = torch.constant.int -1
    %431 = torch.aten.unsqueeze %430, %int-1_411 : !torch.vtensor<[256],f32>, !torch.int -> !torch.vtensor<[256,1],f32>
    %int-1_412 = torch.constant.int -1
    %432 = torch.aten.unsqueeze %431, %int-1_412 : !torch.vtensor<[256,1],f32>, !torch.int -> !torch.vtensor<[256,1,1],f32>
    %int1_413 = torch.constant.int 1
    %433 = torch.aten.add.Tensor %429, %432, %int1_413 : !torch.vtensor<[3,256,128,128],f32>, !torch.vtensor<[256,1,1],f32>, !torch.int -> !torch.vtensor<[3,256,128,128],f32>
    %int1_414 = torch.constant.int 1
    %434 = torch.aten.add.Tensor %433, %317, %int1_414 : !torch.vtensor<[3,256,128,128],f32>, !torch.vtensor<[3,256,128,128],f32>, !torch.int -> !torch.vtensor<[3,256,128,128],f32>
    %435 = torch.aten.relu %434 : !torch.vtensor<[3,256,128,128],f32> -> !torch.vtensor<[3,256,128,128],f32>
    %436 = torch.vtensor.literal(dense_resource<torch_tensor_512_256_1_1_torch.float32> : tensor<512x256x1x1xf32>) : !torch.vtensor<[512,256,1,1],f32>
    %none_415 = torch.constant.none
    %int2_416 = torch.constant.int 2
    %int2_417 = torch.constant.int 2
    %437 = torch.prim.ListConstruct %int2_416, %int2_417 : (!torch.int, !torch.int) -> !torch.list<int>
    %int0_418 = torch.constant.int 0
    %int0_419 = torch.constant.int 0
    %438 = torch.prim.ListConstruct %int0_418, %int0_419 : (!torch.int, !torch.int) -> !torch.list<int>
    %int1_420 = torch.constant.int 1
    %int1_421 = torch.constant.int 1
    %439 = torch.prim.ListConstruct %int1_420, %int1_421 : (!torch.int, !torch.int) -> !torch.list<int>
    %int1_422 = torch.constant.int 1
    %440 = torch.aten.conv2d %435, %436, %none_415, %437, %438, %439, %int1_422 : !torch.vtensor<[3,256,128,128],f32>, !torch.vtensor<[512,256,1,1],f32>, !torch.none, !torch.list<int>, !torch.list<int>, !torch.list<int>, !torch.int -> !torch.vtensor<[3,512,64,64],f32>
    %int1_423 = torch.constant.int 1
    %int1_424 = torch.constant.int 1
    %441 = torch.aten.add.Scalar %arg35, %int1_423, %int1_424 : !torch.vtensor<[],si64>, !torch.int, !torch.int -> !torch.vtensor<[],si64>
    %int0_425 = torch.constant.int 0
    %int2_426 = torch.constant.int 2
    %int3_427 = torch.constant.int 3
    %442 = torch.prim.ListConstruct %int0_425, %int2_426, %int3_427 : (!torch.int, !torch.int, !torch.int) -> !torch.list<int>
    %int0_428 = torch.constant.int 0
    %true_429 = torch.constant.bool true
    %result0_430, %result1_431 = torch.aten.var_mean.correction %440, %442, %int0_428, %true_429 : !torch.vtensor<[3,512,64,64],f32>, !torch.list<int>, !torch.int, !torch.bool -> !torch.vtensor<[1,512,1,1],f32>, !torch.vtensor<[1,512,1,1],f32>
    %float1.000000e-05_432 = torch.constant.float 1.000000e-05
    %int1_433 = torch.constant.int 1
    %443 = torch.aten.add.Scalar %result0_430, %float1.000000e-05_432, %int1_433 : !torch.vtensor<[1,512,1,1],f32>, !torch.float, !torch.int -> !torch.vtensor<[1,512,1,1],f32>
    %444 = torch.aten.rsqrt %443 : !torch.vtensor<[1,512,1,1],f32> -> !torch.vtensor<[1,512,1,1],f32>
    %int1_434 = torch.constant.int 1
    %445 = torch.aten.sub.Tensor %440, %result1_431, %int1_434 : !torch.vtensor<[3,512,64,64],f32>, !torch.vtensor<[1,512,1,1],f32>, !torch.int -> !torch.vtensor<[3,512,64,64],f32>
    %446 = torch.aten.mul.Tensor %445, %444 : !torch.vtensor<[3,512,64,64],f32>, !torch.vtensor<[1,512,1,1],f32> -> !torch.vtensor<[3,512,64,64],f32>
    %int3_435 = torch.constant.int 3
    %447 = torch.prim.ListConstruct %int3_435 : (!torch.int) -> !torch.list<int>
    %448 = torch.prims.squeeze %result1_431, %447 : !torch.vtensor<[1,512,1,1],f32>, !torch.list<int> -> !torch.vtensor<[1,512,1],f32>
    %int2_436 = torch.constant.int 2
    %449 = torch.prim.ListConstruct %int2_436 : (!torch.int) -> !torch.list<int>
    %450 = torch.prims.squeeze %448, %449 : !torch.vtensor<[1,512,1],f32>, !torch.list<int> -> !torch.vtensor<[1,512],f32>
    %int0_437 = torch.constant.int 0
    %451 = torch.prim.ListConstruct %int0_437 : (!torch.int) -> !torch.list<int>
    %452 = torch.prims.squeeze %450, %451 : !torch.vtensor<[1,512],f32>, !torch.list<int> -> !torch.vtensor<[512],f32>
    %float1.000000e-01_438 = torch.constant.float 1.000000e-01
    %453 = torch.aten.mul.Scalar %452, %float1.000000e-01_438 : !torch.vtensor<[512],f32>, !torch.float -> !torch.vtensor<[512],f32>
    %float9.000000e-01_439 = torch.constant.float 9.000000e-01
    %454 = torch.aten.mul.Scalar %arg33, %float9.000000e-01_439 : !torch.vtensor<[512],f32>, !torch.float -> !torch.vtensor<[512],f32>
    %int1_440 = torch.constant.int 1
    %455 = torch.aten.add.Tensor %453, %454, %int1_440 : !torch.vtensor<[512],f32>, !torch.vtensor<[512],f32>, !torch.int -> !torch.vtensor<[512],f32>
    %int3_441 = torch.constant.int 3
    %456 = torch.prim.ListConstruct %int3_441 : (!torch.int) -> !torch.list<int>
    %457 = torch.prims.squeeze %result0_430, %456 : !torch.vtensor<[1,512,1,1],f32>, !torch.list<int> -> !torch.vtensor<[1,512,1],f32>
    %int2_442 = torch.constant.int 2
    %458 = torch.prim.ListConstruct %int2_442 : (!torch.int) -> !torch.list<int>
    %459 = torch.prims.squeeze %457, %458 : !torch.vtensor<[1,512,1],f32>, !torch.list<int> -> !torch.vtensor<[1,512],f32>
    %int0_443 = torch.constant.int 0
    %460 = torch.prim.ListConstruct %int0_443 : (!torch.int) -> !torch.list<int>
    %461 = torch.prims.squeeze %459, %460 : !torch.vtensor<[1,512],f32>, !torch.list<int> -> !torch.vtensor<[512],f32>
    %float1.000080e00 = torch.constant.float 1.0000813868316107
    %462 = torch.aten.mul.Scalar %461, %float1.000080e00 : !torch.vtensor<[512],f32>, !torch.float -> !torch.vtensor<[512],f32>
    %float1.000000e-01_444 = torch.constant.float 1.000000e-01
    %463 = torch.aten.mul.Scalar %462, %float1.000000e-01_444 : !torch.vtensor<[512],f32>, !torch.float -> !torch.vtensor<[512],f32>
    %float9.000000e-01_445 = torch.constant.float 9.000000e-01
    %464 = torch.aten.mul.Scalar %arg34, %float9.000000e-01_445 : !torch.vtensor<[512],f32>, !torch.float -> !torch.vtensor<[512],f32>
    %int1_446 = torch.constant.int 1
    %465 = torch.aten.add.Tensor %463, %464, %int1_446 : !torch.vtensor<[512],f32>, !torch.vtensor<[512],f32>, !torch.int -> !torch.vtensor<[512],f32>
    %466 = torch.vtensor.literal(dense_resource<torch_tensor_512_torch.float32> : tensor<512xf32>) : !torch.vtensor<[512],f32>
    %int-1_447 = torch.constant.int -1
    %467 = torch.aten.unsqueeze %466, %int-1_447 : !torch.vtensor<[512],f32>, !torch.int -> !torch.vtensor<[512,1],f32>
    %int-1_448 = torch.constant.int -1
    %468 = torch.aten.unsqueeze %467, %int-1_448 : !torch.vtensor<[512,1],f32>, !torch.int -> !torch.vtensor<[512,1,1],f32>
    %469 = torch.aten.mul.Tensor %446, %468 : !torch.vtensor<[3,512,64,64],f32>, !torch.vtensor<[512,1,1],f32> -> !torch.vtensor<[3,512,64,64],f32>
    %470 = torch.vtensor.literal(dense_resource<torch_tensor_512_torch.float32_1> : tensor<512xf32>) : !torch.vtensor<[512],f32>
    %int-1_449 = torch.constant.int -1
    %471 = torch.aten.unsqueeze %470, %int-1_449 : !torch.vtensor<[512],f32>, !torch.int -> !torch.vtensor<[512,1],f32>
    %int-1_450 = torch.constant.int -1
    %472 = torch.aten.unsqueeze %471, %int-1_450 : !torch.vtensor<[512,1],f32>, !torch.int -> !torch.vtensor<[512,1,1],f32>
    %int1_451 = torch.constant.int 1
    %473 = torch.aten.add.Tensor %469, %472, %int1_451 : !torch.vtensor<[3,512,64,64],f32>, !torch.vtensor<[512,1,1],f32>, !torch.int -> !torch.vtensor<[3,512,64,64],f32>
    %474 = torch.vtensor.literal(dense_resource<torch_tensor_128_256_1_1_torch.float32> : tensor<128x256x1x1xf32>) : !torch.vtensor<[128,256,1,1],f32>
    %none_452 = torch.constant.none
    %int1_453 = torch.constant.int 1
    %int1_454 = torch.constant.int 1
    %475 = torch.prim.ListConstruct %int1_453, %int1_454 : (!torch.int, !torch.int) -> !torch.list<int>
    %int0_455 = torch.constant.int 0
    %int0_456 = torch.constant.int 0
    %476 = torch.prim.ListConstruct %int0_455, %int0_456 : (!torch.int, !torch.int) -> !torch.list<int>
    %int1_457 = torch.constant.int 1
    %int1_458 = torch.constant.int 1
    %477 = torch.prim.ListConstruct %int1_457, %int1_458 : (!torch.int, !torch.int) -> !torch.list<int>
    %int1_459 = torch.constant.int 1
    %478 = torch.aten.conv2d %435, %474, %none_452, %475, %476, %477, %int1_459 : !torch.vtensor<[3,256,128,128],f32>, !torch.vtensor<[128,256,1,1],f32>, !torch.none, !torch.list<int>, !torch.list<int>, !torch.list<int>, !torch.int -> !torch.vtensor<[3,128,128,128],f32>
    %int1_460 = torch.constant.int 1
    %int1_461 = torch.constant.int 1
    %479 = torch.aten.add.Scalar %arg38, %int1_460, %int1_461 : !torch.vtensor<[],si64>, !torch.int, !torch.int -> !torch.vtensor<[],si64>
    %int0_462 = torch.constant.int 0
    %int2_463 = torch.constant.int 2
    %int3_464 = torch.constant.int 3
    %480 = torch.prim.ListConstruct %int0_462, %int2_463, %int3_464 : (!torch.int, !torch.int, !torch.int) -> !torch.list<int>
    %int0_465 = torch.constant.int 0
    %true_466 = torch.constant.bool true
    %result0_467, %result1_468 = torch.aten.var_mean.correction %478, %480, %int0_465, %true_466 : !torch.vtensor<[3,128,128,128],f32>, !torch.list<int>, !torch.int, !torch.bool -> !torch.vtensor<[1,128,1,1],f32>, !torch.vtensor<[1,128,1,1],f32>
    %float1.000000e-05_469 = torch.constant.float 1.000000e-05
    %int1_470 = torch.constant.int 1
    %481 = torch.aten.add.Scalar %result0_467, %float1.000000e-05_469, %int1_470 : !torch.vtensor<[1,128,1,1],f32>, !torch.float, !torch.int -> !torch.vtensor<[1,128,1,1],f32>
    %482 = torch.aten.rsqrt %481 : !torch.vtensor<[1,128,1,1],f32> -> !torch.vtensor<[1,128,1,1],f32>
    %int1_471 = torch.constant.int 1
    %483 = torch.aten.sub.Tensor %478, %result1_468, %int1_471 : !torch.vtensor<[3,128,128,128],f32>, !torch.vtensor<[1,128,1,1],f32>, !torch.int -> !torch.vtensor<[3,128,128,128],f32>
    %484 = torch.aten.mul.Tensor %483, %482 : !torch.vtensor<[3,128,128,128],f32>, !torch.vtensor<[1,128,1,1],f32> -> !torch.vtensor<[3,128,128,128],f32>
    %int3_472 = torch.constant.int 3
    %485 = torch.prim.ListConstruct %int3_472 : (!torch.int) -> !torch.list<int>
    %486 = torch.prims.squeeze %result1_468, %485 : !torch.vtensor<[1,128,1,1],f32>, !torch.list<int> -> !torch.vtensor<[1,128,1],f32>
    %int2_473 = torch.constant.int 2
    %487 = torch.prim.ListConstruct %int2_473 : (!torch.int) -> !torch.list<int>
    %488 = torch.prims.squeeze %486, %487 : !torch.vtensor<[1,128,1],f32>, !torch.list<int> -> !torch.vtensor<[1,128],f32>
    %int0_474 = torch.constant.int 0
    %489 = torch.prim.ListConstruct %int0_474 : (!torch.int) -> !torch.list<int>
    %490 = torch.prims.squeeze %488, %489 : !torch.vtensor<[1,128],f32>, !torch.list<int> -> !torch.vtensor<[128],f32>
    %float1.000000e-01_475 = torch.constant.float 1.000000e-01
    %491 = torch.aten.mul.Scalar %490, %float1.000000e-01_475 : !torch.vtensor<[128],f32>, !torch.float -> !torch.vtensor<[128],f32>
    %float9.000000e-01_476 = torch.constant.float 9.000000e-01
    %492 = torch.aten.mul.Scalar %arg36, %float9.000000e-01_476 : !torch.vtensor<[128],f32>, !torch.float -> !torch.vtensor<[128],f32>
    %int1_477 = torch.constant.int 1
    %493 = torch.aten.add.Tensor %491, %492, %int1_477 : !torch.vtensor<[128],f32>, !torch.vtensor<[128],f32>, !torch.int -> !torch.vtensor<[128],f32>
    %int3_478 = torch.constant.int 3
    %494 = torch.prim.ListConstruct %int3_478 : (!torch.int) -> !torch.list<int>
    %495 = torch.prims.squeeze %result0_467, %494 : !torch.vtensor<[1,128,1,1],f32>, !torch.list<int> -> !torch.vtensor<[1,128,1],f32>
    %int2_479 = torch.constant.int 2
    %496 = torch.prim.ListConstruct %int2_479 : (!torch.int) -> !torch.list<int>
    %497 = torch.prims.squeeze %495, %496 : !torch.vtensor<[1,128,1],f32>, !torch.list<int> -> !torch.vtensor<[1,128],f32>
    %int0_480 = torch.constant.int 0
    %498 = torch.prim.ListConstruct %int0_480 : (!torch.int) -> !torch.list<int>
    %499 = torch.prims.squeeze %497, %498 : !torch.vtensor<[1,128],f32>, !torch.list<int> -> !torch.vtensor<[128],f32>
    %float1.000020e00_481 = torch.constant.float 1.0000203454660128
    %500 = torch.aten.mul.Scalar %499, %float1.000020e00_481 : !torch.vtensor<[128],f32>, !torch.float -> !torch.vtensor<[128],f32>
    %float1.000000e-01_482 = torch.constant.float 1.000000e-01
    %501 = torch.aten.mul.Scalar %500, %float1.000000e-01_482 : !torch.vtensor<[128],f32>, !torch.float -> !torch.vtensor<[128],f32>
    %float9.000000e-01_483 = torch.constant.float 9.000000e-01
    %502 = torch.aten.mul.Scalar %arg37, %float9.000000e-01_483 : !torch.vtensor<[128],f32>, !torch.float -> !torch.vtensor<[128],f32>
    %int1_484 = torch.constant.int 1
    %503 = torch.aten.add.Tensor %501, %502, %int1_484 : !torch.vtensor<[128],f32>, !torch.vtensor<[128],f32>, !torch.int -> !torch.vtensor<[128],f32>
    %504 = torch.vtensor.literal(dense_resource<torch_tensor_128_torch.float32> : tensor<128xf32>) : !torch.vtensor<[128],f32>
    %int-1_485 = torch.constant.int -1
    %505 = torch.aten.unsqueeze %504, %int-1_485 : !torch.vtensor<[128],f32>, !torch.int -> !torch.vtensor<[128,1],f32>
    %int-1_486 = torch.constant.int -1
    %506 = torch.aten.unsqueeze %505, %int-1_486 : !torch.vtensor<[128,1],f32>, !torch.int -> !torch.vtensor<[128,1,1],f32>
    %507 = torch.aten.mul.Tensor %484, %506 : !torch.vtensor<[3,128,128,128],f32>, !torch.vtensor<[128,1,1],f32> -> !torch.vtensor<[3,128,128,128],f32>
    %508 = torch.vtensor.literal(dense_resource<torch_tensor_128_torch.float32_1> : tensor<128xf32>) : !torch.vtensor<[128],f32>
    %int-1_487 = torch.constant.int -1
    %509 = torch.aten.unsqueeze %508, %int-1_487 : !torch.vtensor<[128],f32>, !torch.int -> !torch.vtensor<[128,1],f32>
    %int-1_488 = torch.constant.int -1
    %510 = torch.aten.unsqueeze %509, %int-1_488 : !torch.vtensor<[128,1],f32>, !torch.int -> !torch.vtensor<[128,1,1],f32>
    %int1_489 = torch.constant.int 1
    %511 = torch.aten.add.Tensor %507, %510, %int1_489 : !torch.vtensor<[3,128,128,128],f32>, !torch.vtensor<[128,1,1],f32>, !torch.int -> !torch.vtensor<[3,128,128,128],f32>
    %512 = torch.aten.relu %511 : !torch.vtensor<[3,128,128,128],f32> -> !torch.vtensor<[3,128,128,128],f32>
    %513 = torch.vtensor.literal(dense_resource<torch_tensor_128_128_3_3_torch.float32> : tensor<128x128x3x3xf32>) : !torch.vtensor<[128,128,3,3],f32>
    %none_490 = torch.constant.none
    %int2_491 = torch.constant.int 2
    %int2_492 = torch.constant.int 2
    %514 = torch.prim.ListConstruct %int2_491, %int2_492 : (!torch.int, !torch.int) -> !torch.list<int>
    %int1_493 = torch.constant.int 1
    %int1_494 = torch.constant.int 1
    %515 = torch.prim.ListConstruct %int1_493, %int1_494 : (!torch.int, !torch.int) -> !torch.list<int>
    %int1_495 = torch.constant.int 1
    %int1_496 = torch.constant.int 1
    %516 = torch.prim.ListConstruct %int1_495, %int1_496 : (!torch.int, !torch.int) -> !torch.list<int>
    %int1_497 = torch.constant.int 1
    %517 = torch.aten.conv2d %512, %513, %none_490, %514, %515, %516, %int1_497 : !torch.vtensor<[3,128,128,128],f32>, !torch.vtensor<[128,128,3,3],f32>, !torch.none, !torch.list<int>, !torch.list<int>, !torch.list<int>, !torch.int -> !torch.vtensor<[3,128,64,64],f32>
    %int1_498 = torch.constant.int 1
    %int1_499 = torch.constant.int 1
    %518 = torch.aten.add.Scalar %arg41, %int1_498, %int1_499 : !torch.vtensor<[],si64>, !torch.int, !torch.int -> !torch.vtensor<[],si64>
    %int0_500 = torch.constant.int 0
    %int2_501 = torch.constant.int 2
    %int3_502 = torch.constant.int 3
    %519 = torch.prim.ListConstruct %int0_500, %int2_501, %int3_502 : (!torch.int, !torch.int, !torch.int) -> !torch.list<int>
    %int0_503 = torch.constant.int 0
    %true_504 = torch.constant.bool true
    %result0_505, %result1_506 = torch.aten.var_mean.correction %517, %519, %int0_503, %true_504 : !torch.vtensor<[3,128,64,64],f32>, !torch.list<int>, !torch.int, !torch.bool -> !torch.vtensor<[1,128,1,1],f32>, !torch.vtensor<[1,128,1,1],f32>
    %float1.000000e-05_507 = torch.constant.float 1.000000e-05
    %int1_508 = torch.constant.int 1
    %520 = torch.aten.add.Scalar %result0_505, %float1.000000e-05_507, %int1_508 : !torch.vtensor<[1,128,1,1],f32>, !torch.float, !torch.int -> !torch.vtensor<[1,128,1,1],f32>
    %521 = torch.aten.rsqrt %520 : !torch.vtensor<[1,128,1,1],f32> -> !torch.vtensor<[1,128,1,1],f32>
    %int1_509 = torch.constant.int 1
    %522 = torch.aten.sub.Tensor %517, %result1_506, %int1_509 : !torch.vtensor<[3,128,64,64],f32>, !torch.vtensor<[1,128,1,1],f32>, !torch.int -> !torch.vtensor<[3,128,64,64],f32>
    %523 = torch.aten.mul.Tensor %522, %521 : !torch.vtensor<[3,128,64,64],f32>, !torch.vtensor<[1,128,1,1],f32> -> !torch.vtensor<[3,128,64,64],f32>
    %int3_510 = torch.constant.int 3
    %524 = torch.prim.ListConstruct %int3_510 : (!torch.int) -> !torch.list<int>
    %525 = torch.prims.squeeze %result1_506, %524 : !torch.vtensor<[1,128,1,1],f32>, !torch.list<int> -> !torch.vtensor<[1,128,1],f32>
    %int2_511 = torch.constant.int 2
    %526 = torch.prim.ListConstruct %int2_511 : (!torch.int) -> !torch.list<int>
    %527 = torch.prims.squeeze %525, %526 : !torch.vtensor<[1,128,1],f32>, !torch.list<int> -> !torch.vtensor<[1,128],f32>
    %int0_512 = torch.constant.int 0
    %528 = torch.prim.ListConstruct %int0_512 : (!torch.int) -> !torch.list<int>
    %529 = torch.prims.squeeze %527, %528 : !torch.vtensor<[1,128],f32>, !torch.list<int> -> !torch.vtensor<[128],f32>
    %float1.000000e-01_513 = torch.constant.float 1.000000e-01
    %530 = torch.aten.mul.Scalar %529, %float1.000000e-01_513 : !torch.vtensor<[128],f32>, !torch.float -> !torch.vtensor<[128],f32>
    %float9.000000e-01_514 = torch.constant.float 9.000000e-01
    %531 = torch.aten.mul.Scalar %arg39, %float9.000000e-01_514 : !torch.vtensor<[128],f32>, !torch.float -> !torch.vtensor<[128],f32>
    %int1_515 = torch.constant.int 1
    %532 = torch.aten.add.Tensor %530, %531, %int1_515 : !torch.vtensor<[128],f32>, !torch.vtensor<[128],f32>, !torch.int -> !torch.vtensor<[128],f32>
    %int3_516 = torch.constant.int 3
    %533 = torch.prim.ListConstruct %int3_516 : (!torch.int) -> !torch.list<int>
    %534 = torch.prims.squeeze %result0_505, %533 : !torch.vtensor<[1,128,1,1],f32>, !torch.list<int> -> !torch.vtensor<[1,128,1],f32>
    %int2_517 = torch.constant.int 2
    %535 = torch.prim.ListConstruct %int2_517 : (!torch.int) -> !torch.list<int>
    %536 = torch.prims.squeeze %534, %535 : !torch.vtensor<[1,128,1],f32>, !torch.list<int> -> !torch.vtensor<[1,128],f32>
    %int0_518 = torch.constant.int 0
    %537 = torch.prim.ListConstruct %int0_518 : (!torch.int) -> !torch.list<int>
    %538 = torch.prims.squeeze %536, %537 : !torch.vtensor<[1,128],f32>, !torch.list<int> -> !torch.vtensor<[128],f32>
    %float1.000080e00_519 = torch.constant.float 1.0000813868316107
    %539 = torch.aten.mul.Scalar %538, %float1.000080e00_519 : !torch.vtensor<[128],f32>, !torch.float -> !torch.vtensor<[128],f32>
    %float1.000000e-01_520 = torch.constant.float 1.000000e-01
    %540 = torch.aten.mul.Scalar %539, %float1.000000e-01_520 : !torch.vtensor<[128],f32>, !torch.float -> !torch.vtensor<[128],f32>
    %float9.000000e-01_521 = torch.constant.float 9.000000e-01
    %541 = torch.aten.mul.Scalar %arg40, %float9.000000e-01_521 : !torch.vtensor<[128],f32>, !torch.float -> !torch.vtensor<[128],f32>
    %int1_522 = torch.constant.int 1
    %542 = torch.aten.add.Tensor %540, %541, %int1_522 : !torch.vtensor<[128],f32>, !torch.vtensor<[128],f32>, !torch.int -> !torch.vtensor<[128],f32>
    %543 = torch.vtensor.literal(dense_resource<torch_tensor_128_torch.float32_2> : tensor<128xf32>) : !torch.vtensor<[128],f32>
    %int-1_523 = torch.constant.int -1
    %544 = torch.aten.unsqueeze %543, %int-1_523 : !torch.vtensor<[128],f32>, !torch.int -> !torch.vtensor<[128,1],f32>
    %int-1_524 = torch.constant.int -1
    %545 = torch.aten.unsqueeze %544, %int-1_524 : !torch.vtensor<[128,1],f32>, !torch.int -> !torch.vtensor<[128,1,1],f32>
    %546 = torch.aten.mul.Tensor %523, %545 : !torch.vtensor<[3,128,64,64],f32>, !torch.vtensor<[128,1,1],f32> -> !torch.vtensor<[3,128,64,64],f32>
    %547 = torch.vtensor.literal(dense_resource<torch_tensor_128_torch.float32_3> : tensor<128xf32>) : !torch.vtensor<[128],f32>
    %int-1_525 = torch.constant.int -1
    %548 = torch.aten.unsqueeze %547, %int-1_525 : !torch.vtensor<[128],f32>, !torch.int -> !torch.vtensor<[128,1],f32>
    %int-1_526 = torch.constant.int -1
    %549 = torch.aten.unsqueeze %548, %int-1_526 : !torch.vtensor<[128,1],f32>, !torch.int -> !torch.vtensor<[128,1,1],f32>
    %int1_527 = torch.constant.int 1
    %550 = torch.aten.add.Tensor %546, %549, %int1_527 : !torch.vtensor<[3,128,64,64],f32>, !torch.vtensor<[128,1,1],f32>, !torch.int -> !torch.vtensor<[3,128,64,64],f32>
    %551 = torch.aten.relu %550 : !torch.vtensor<[3,128,64,64],f32> -> !torch.vtensor<[3,128,64,64],f32>
    %552 = torch.vtensor.literal(dense_resource<torch_tensor_512_128_1_1_torch.float32> : tensor<512x128x1x1xf32>) : !torch.vtensor<[512,128,1,1],f32>
    %none_528 = torch.constant.none
    %int1_529 = torch.constant.int 1
    %int1_530 = torch.constant.int 1
    %553 = torch.prim.ListConstruct %int1_529, %int1_530 : (!torch.int, !torch.int) -> !torch.list<int>
    %int0_531 = torch.constant.int 0
    %int0_532 = torch.constant.int 0
    %554 = torch.prim.ListConstruct %int0_531, %int0_532 : (!torch.int, !torch.int) -> !torch.list<int>
    %int1_533 = torch.constant.int 1
    %int1_534 = torch.constant.int 1
    %555 = torch.prim.ListConstruct %int1_533, %int1_534 : (!torch.int, !torch.int) -> !torch.list<int>
    %int1_535 = torch.constant.int 1
    %556 = torch.aten.conv2d %551, %552, %none_528, %553, %554, %555, %int1_535 : !torch.vtensor<[3,128,64,64],f32>, !torch.vtensor<[512,128,1,1],f32>, !torch.none, !torch.list<int>, !torch.list<int>, !torch.list<int>, !torch.int -> !torch.vtensor<[3,512,64,64],f32>
    %int1_536 = torch.constant.int 1
    %int1_537 = torch.constant.int 1
    %557 = torch.aten.add.Scalar %arg44, %int1_536, %int1_537 : !torch.vtensor<[],si64>, !torch.int, !torch.int -> !torch.vtensor<[],si64>
    %int0_538 = torch.constant.int 0
    %int2_539 = torch.constant.int 2
    %int3_540 = torch.constant.int 3
    %558 = torch.prim.ListConstruct %int0_538, %int2_539, %int3_540 : (!torch.int, !torch.int, !torch.int) -> !torch.list<int>
    %int0_541 = torch.constant.int 0
    %true_542 = torch.constant.bool true
    %result0_543, %result1_544 = torch.aten.var_mean.correction %556, %558, %int0_541, %true_542 : !torch.vtensor<[3,512,64,64],f32>, !torch.list<int>, !torch.int, !torch.bool -> !torch.vtensor<[1,512,1,1],f32>, !torch.vtensor<[1,512,1,1],f32>
    %float1.000000e-05_545 = torch.constant.float 1.000000e-05
    %int1_546 = torch.constant.int 1
    %559 = torch.aten.add.Scalar %result0_543, %float1.000000e-05_545, %int1_546 : !torch.vtensor<[1,512,1,1],f32>, !torch.float, !torch.int -> !torch.vtensor<[1,512,1,1],f32>
    %560 = torch.aten.rsqrt %559 : !torch.vtensor<[1,512,1,1],f32> -> !torch.vtensor<[1,512,1,1],f32>
    %int1_547 = torch.constant.int 1
    %561 = torch.aten.sub.Tensor %556, %result1_544, %int1_547 : !torch.vtensor<[3,512,64,64],f32>, !torch.vtensor<[1,512,1,1],f32>, !torch.int -> !torch.vtensor<[3,512,64,64],f32>
    %562 = torch.aten.mul.Tensor %561, %560 : !torch.vtensor<[3,512,64,64],f32>, !torch.vtensor<[1,512,1,1],f32> -> !torch.vtensor<[3,512,64,64],f32>
    %int3_548 = torch.constant.int 3
    %563 = torch.prim.ListConstruct %int3_548 : (!torch.int) -> !torch.list<int>
    %564 = torch.prims.squeeze %result1_544, %563 : !torch.vtensor<[1,512,1,1],f32>, !torch.list<int> -> !torch.vtensor<[1,512,1],f32>
    %int2_549 = torch.constant.int 2
    %565 = torch.prim.ListConstruct %int2_549 : (!torch.int) -> !torch.list<int>
    %566 = torch.prims.squeeze %564, %565 : !torch.vtensor<[1,512,1],f32>, !torch.list<int> -> !torch.vtensor<[1,512],f32>
    %int0_550 = torch.constant.int 0
    %567 = torch.prim.ListConstruct %int0_550 : (!torch.int) -> !torch.list<int>
    %568 = torch.prims.squeeze %566, %567 : !torch.vtensor<[1,512],f32>, !torch.list<int> -> !torch.vtensor<[512],f32>
    %float1.000000e-01_551 = torch.constant.float 1.000000e-01
    %569 = torch.aten.mul.Scalar %568, %float1.000000e-01_551 : !torch.vtensor<[512],f32>, !torch.float -> !torch.vtensor<[512],f32>
    %float9.000000e-01_552 = torch.constant.float 9.000000e-01
    %570 = torch.aten.mul.Scalar %arg42, %float9.000000e-01_552 : !torch.vtensor<[512],f32>, !torch.float -> !torch.vtensor<[512],f32>
    %int1_553 = torch.constant.int 1
    %571 = torch.aten.add.Tensor %569, %570, %int1_553 : !torch.vtensor<[512],f32>, !torch.vtensor<[512],f32>, !torch.int -> !torch.vtensor<[512],f32>
    %int3_554 = torch.constant.int 3
    %572 = torch.prim.ListConstruct %int3_554 : (!torch.int) -> !torch.list<int>
    %573 = torch.prims.squeeze %result0_543, %572 : !torch.vtensor<[1,512,1,1],f32>, !torch.list<int> -> !torch.vtensor<[1,512,1],f32>
    %int2_555 = torch.constant.int 2
    %574 = torch.prim.ListConstruct %int2_555 : (!torch.int) -> !torch.list<int>
    %575 = torch.prims.squeeze %573, %574 : !torch.vtensor<[1,512,1],f32>, !torch.list<int> -> !torch.vtensor<[1,512],f32>
    %int0_556 = torch.constant.int 0
    %576 = torch.prim.ListConstruct %int0_556 : (!torch.int) -> !torch.list<int>
    %577 = torch.prims.squeeze %575, %576 : !torch.vtensor<[1,512],f32>, !torch.list<int> -> !torch.vtensor<[512],f32>
    %float1.000080e00_557 = torch.constant.float 1.0000813868316107
    %578 = torch.aten.mul.Scalar %577, %float1.000080e00_557 : !torch.vtensor<[512],f32>, !torch.float -> !torch.vtensor<[512],f32>
    %float1.000000e-01_558 = torch.constant.float 1.000000e-01
    %579 = torch.aten.mul.Scalar %578, %float1.000000e-01_558 : !torch.vtensor<[512],f32>, !torch.float -> !torch.vtensor<[512],f32>
    %float9.000000e-01_559 = torch.constant.float 9.000000e-01
    %580 = torch.aten.mul.Scalar %arg43, %float9.000000e-01_559 : !torch.vtensor<[512],f32>, !torch.float -> !torch.vtensor<[512],f32>
    %int1_560 = torch.constant.int 1
    %581 = torch.aten.add.Tensor %579, %580, %int1_560 : !torch.vtensor<[512],f32>, !torch.vtensor<[512],f32>, !torch.int -> !torch.vtensor<[512],f32>
    %582 = torch.vtensor.literal(dense_resource<torch_tensor_512_torch.float32_2> : tensor<512xf32>) : !torch.vtensor<[512],f32>
    %int-1_561 = torch.constant.int -1
    %583 = torch.aten.unsqueeze %582, %int-1_561 : !torch.vtensor<[512],f32>, !torch.int -> !torch.vtensor<[512,1],f32>
    %int-1_562 = torch.constant.int -1
    %584 = torch.aten.unsqueeze %583, %int-1_562 : !torch.vtensor<[512,1],f32>, !torch.int -> !torch.vtensor<[512,1,1],f32>
    %585 = torch.aten.mul.Tensor %562, %584 : !torch.vtensor<[3,512,64,64],f32>, !torch.vtensor<[512,1,1],f32> -> !torch.vtensor<[3,512,64,64],f32>
    %586 = torch.vtensor.literal(dense_resource<torch_tensor_512_torch.float32_3> : tensor<512xf32>) : !torch.vtensor<[512],f32>
    %int-1_563 = torch.constant.int -1
    %587 = torch.aten.unsqueeze %586, %int-1_563 : !torch.vtensor<[512],f32>, !torch.int -> !torch.vtensor<[512,1],f32>
    %int-1_564 = torch.constant.int -1
    %588 = torch.aten.unsqueeze %587, %int-1_564 : !torch.vtensor<[512,1],f32>, !torch.int -> !torch.vtensor<[512,1,1],f32>
    %int1_565 = torch.constant.int 1
    %589 = torch.aten.add.Tensor %585, %588, %int1_565 : !torch.vtensor<[3,512,64,64],f32>, !torch.vtensor<[512,1,1],f32>, !torch.int -> !torch.vtensor<[3,512,64,64],f32>
    %int1_566 = torch.constant.int 1
    %590 = torch.aten.add.Tensor %589, %473, %int1_566 : !torch.vtensor<[3,512,64,64],f32>, !torch.vtensor<[3,512,64,64],f32>, !torch.int -> !torch.vtensor<[3,512,64,64],f32>
    %591 = torch.aten.relu %590 : !torch.vtensor<[3,512,64,64],f32> -> !torch.vtensor<[3,512,64,64],f32>
    %592 = torch.vtensor.literal(dense_resource<torch_tensor_128_512_1_1_torch.float32> : tensor<128x512x1x1xf32>) : !torch.vtensor<[128,512,1,1],f32>
    %none_567 = torch.constant.none
    %int1_568 = torch.constant.int 1
    %int1_569 = torch.constant.int 1
    %593 = torch.prim.ListConstruct %int1_568, %int1_569 : (!torch.int, !torch.int) -> !torch.list<int>
    %int0_570 = torch.constant.int 0
    %int0_571 = torch.constant.int 0
    %594 = torch.prim.ListConstruct %int0_570, %int0_571 : (!torch.int, !torch.int) -> !torch.list<int>
    %int1_572 = torch.constant.int 1
    %int1_573 = torch.constant.int 1
    %595 = torch.prim.ListConstruct %int1_572, %int1_573 : (!torch.int, !torch.int) -> !torch.list<int>
    %int1_574 = torch.constant.int 1
    %596 = torch.aten.conv2d %591, %592, %none_567, %593, %594, %595, %int1_574 : !torch.vtensor<[3,512,64,64],f32>, !torch.vtensor<[128,512,1,1],f32>, !torch.none, !torch.list<int>, !torch.list<int>, !torch.list<int>, !torch.int -> !torch.vtensor<[3,128,64,64],f32>
    %int1_575 = torch.constant.int 1
    %int1_576 = torch.constant.int 1
    %597 = torch.aten.add.Scalar %arg47, %int1_575, %int1_576 : !torch.vtensor<[],si64>, !torch.int, !torch.int -> !torch.vtensor<[],si64>
    %int0_577 = torch.constant.int 0
    %int2_578 = torch.constant.int 2
    %int3_579 = torch.constant.int 3
    %598 = torch.prim.ListConstruct %int0_577, %int2_578, %int3_579 : (!torch.int, !torch.int, !torch.int) -> !torch.list<int>
    %int0_580 = torch.constant.int 0
    %true_581 = torch.constant.bool true
    %result0_582, %result1_583 = torch.aten.var_mean.correction %596, %598, %int0_580, %true_581 : !torch.vtensor<[3,128,64,64],f32>, !torch.list<int>, !torch.int, !torch.bool -> !torch.vtensor<[1,128,1,1],f32>, !torch.vtensor<[1,128,1,1],f32>
    %float1.000000e-05_584 = torch.constant.float 1.000000e-05
    %int1_585 = torch.constant.int 1
    %599 = torch.aten.add.Scalar %result0_582, %float1.000000e-05_584, %int1_585 : !torch.vtensor<[1,128,1,1],f32>, !torch.float, !torch.int -> !torch.vtensor<[1,128,1,1],f32>
    %600 = torch.aten.rsqrt %599 : !torch.vtensor<[1,128,1,1],f32> -> !torch.vtensor<[1,128,1,1],f32>
    %int1_586 = torch.constant.int 1
    %601 = torch.aten.sub.Tensor %596, %result1_583, %int1_586 : !torch.vtensor<[3,128,64,64],f32>, !torch.vtensor<[1,128,1,1],f32>, !torch.int -> !torch.vtensor<[3,128,64,64],f32>
    %602 = torch.aten.mul.Tensor %601, %600 : !torch.vtensor<[3,128,64,64],f32>, !torch.vtensor<[1,128,1,1],f32> -> !torch.vtensor<[3,128,64,64],f32>
    %int3_587 = torch.constant.int 3
    %603 = torch.prim.ListConstruct %int3_587 : (!torch.int) -> !torch.list<int>
    %604 = torch.prims.squeeze %result1_583, %603 : !torch.vtensor<[1,128,1,1],f32>, !torch.list<int> -> !torch.vtensor<[1,128,1],f32>
    %int2_588 = torch.constant.int 2
    %605 = torch.prim.ListConstruct %int2_588 : (!torch.int) -> !torch.list<int>
    %606 = torch.prims.squeeze %604, %605 : !torch.vtensor<[1,128,1],f32>, !torch.list<int> -> !torch.vtensor<[1,128],f32>
    %int0_589 = torch.constant.int 0
    %607 = torch.prim.ListConstruct %int0_589 : (!torch.int) -> !torch.list<int>
    %608 = torch.prims.squeeze %606, %607 : !torch.vtensor<[1,128],f32>, !torch.list<int> -> !torch.vtensor<[128],f32>
    %float1.000000e-01_590 = torch.constant.float 1.000000e-01
    %609 = torch.aten.mul.Scalar %608, %float1.000000e-01_590 : !torch.vtensor<[128],f32>, !torch.float -> !torch.vtensor<[128],f32>
    %float9.000000e-01_591 = torch.constant.float 9.000000e-01
    %610 = torch.aten.mul.Scalar %arg45, %float9.000000e-01_591 : !torch.vtensor<[128],f32>, !torch.float -> !torch.vtensor<[128],f32>
    %int1_592 = torch.constant.int 1
    %611 = torch.aten.add.Tensor %609, %610, %int1_592 : !torch.vtensor<[128],f32>, !torch.vtensor<[128],f32>, !torch.int -> !torch.vtensor<[128],f32>
    %int3_593 = torch.constant.int 3
    %612 = torch.prim.ListConstruct %int3_593 : (!torch.int) -> !torch.list<int>
    %613 = torch.prims.squeeze %result0_582, %612 : !torch.vtensor<[1,128,1,1],f32>, !torch.list<int> -> !torch.vtensor<[1,128,1],f32>
    %int2_594 = torch.constant.int 2
    %614 = torch.prim.ListConstruct %int2_594 : (!torch.int) -> !torch.list<int>
    %615 = torch.prims.squeeze %613, %614 : !torch.vtensor<[1,128,1],f32>, !torch.list<int> -> !torch.vtensor<[1,128],f32>
    %int0_595 = torch.constant.int 0
    %616 = torch.prim.ListConstruct %int0_595 : (!torch.int) -> !torch.list<int>
    %617 = torch.prims.squeeze %615, %616 : !torch.vtensor<[1,128],f32>, !torch.list<int> -> !torch.vtensor<[128],f32>
    %float1.000080e00_596 = torch.constant.float 1.0000813868316107
    %618 = torch.aten.mul.Scalar %617, %float1.000080e00_596 : !torch.vtensor<[128],f32>, !torch.float -> !torch.vtensor<[128],f32>
    %float1.000000e-01_597 = torch.constant.float 1.000000e-01
    %619 = torch.aten.mul.Scalar %618, %float1.000000e-01_597 : !torch.vtensor<[128],f32>, !torch.float -> !torch.vtensor<[128],f32>
    %float9.000000e-01_598 = torch.constant.float 9.000000e-01
    %620 = torch.aten.mul.Scalar %arg46, %float9.000000e-01_598 : !torch.vtensor<[128],f32>, !torch.float -> !torch.vtensor<[128],f32>
    %int1_599 = torch.constant.int 1
    %621 = torch.aten.add.Tensor %619, %620, %int1_599 : !torch.vtensor<[128],f32>, !torch.vtensor<[128],f32>, !torch.int -> !torch.vtensor<[128],f32>
    %622 = torch.vtensor.literal(dense_resource<torch_tensor_128_torch.float32_4> : tensor<128xf32>) : !torch.vtensor<[128],f32>
    %int-1_600 = torch.constant.int -1
    %623 = torch.aten.unsqueeze %622, %int-1_600 : !torch.vtensor<[128],f32>, !torch.int -> !torch.vtensor<[128,1],f32>
    %int-1_601 = torch.constant.int -1
    %624 = torch.aten.unsqueeze %623, %int-1_601 : !torch.vtensor<[128,1],f32>, !torch.int -> !torch.vtensor<[128,1,1],f32>
    %625 = torch.aten.mul.Tensor %602, %624 : !torch.vtensor<[3,128,64,64],f32>, !torch.vtensor<[128,1,1],f32> -> !torch.vtensor<[3,128,64,64],f32>
    %626 = torch.vtensor.literal(dense_resource<torch_tensor_128_torch.float32_5> : tensor<128xf32>) : !torch.vtensor<[128],f32>
    %int-1_602 = torch.constant.int -1
    %627 = torch.aten.unsqueeze %626, %int-1_602 : !torch.vtensor<[128],f32>, !torch.int -> !torch.vtensor<[128,1],f32>
    %int-1_603 = torch.constant.int -1
    %628 = torch.aten.unsqueeze %627, %int-1_603 : !torch.vtensor<[128,1],f32>, !torch.int -> !torch.vtensor<[128,1,1],f32>
    %int1_604 = torch.constant.int 1
    %629 = torch.aten.add.Tensor %625, %628, %int1_604 : !torch.vtensor<[3,128,64,64],f32>, !torch.vtensor<[128,1,1],f32>, !torch.int -> !torch.vtensor<[3,128,64,64],f32>
    %630 = torch.aten.relu %629 : !torch.vtensor<[3,128,64,64],f32> -> !torch.vtensor<[3,128,64,64],f32>
    %631 = torch.vtensor.literal(dense_resource<torch_tensor_128_128_3_3_torch.float32_1> : tensor<128x128x3x3xf32>) : !torch.vtensor<[128,128,3,3],f32>
    %none_605 = torch.constant.none
    %int1_606 = torch.constant.int 1
    %int1_607 = torch.constant.int 1
    %632 = torch.prim.ListConstruct %int1_606, %int1_607 : (!torch.int, !torch.int) -> !torch.list<int>
    %int1_608 = torch.constant.int 1
    %int1_609 = torch.constant.int 1
    %633 = torch.prim.ListConstruct %int1_608, %int1_609 : (!torch.int, !torch.int) -> !torch.list<int>
    %int1_610 = torch.constant.int 1
    %int1_611 = torch.constant.int 1
    %634 = torch.prim.ListConstruct %int1_610, %int1_611 : (!torch.int, !torch.int) -> !torch.list<int>
    %int1_612 = torch.constant.int 1
    %635 = torch.aten.conv2d %630, %631, %none_605, %632, %633, %634, %int1_612 : !torch.vtensor<[3,128,64,64],f32>, !torch.vtensor<[128,128,3,3],f32>, !torch.none, !torch.list<int>, !torch.list<int>, !torch.list<int>, !torch.int -> !torch.vtensor<[3,128,64,64],f32>
    %int1_613 = torch.constant.int 1
    %int1_614 = torch.constant.int 1
    %636 = torch.aten.add.Scalar %arg50, %int1_613, %int1_614 : !torch.vtensor<[],si64>, !torch.int, !torch.int -> !torch.vtensor<[],si64>
    %int0_615 = torch.constant.int 0
    %int2_616 = torch.constant.int 2
    %int3_617 = torch.constant.int 3
    %637 = torch.prim.ListConstruct %int0_615, %int2_616, %int3_617 : (!torch.int, !torch.int, !torch.int) -> !torch.list<int>
    %int0_618 = torch.constant.int 0
    %true_619 = torch.constant.bool true
    %result0_620, %result1_621 = torch.aten.var_mean.correction %635, %637, %int0_618, %true_619 : !torch.vtensor<[3,128,64,64],f32>, !torch.list<int>, !torch.int, !torch.bool -> !torch.vtensor<[1,128,1,1],f32>, !torch.vtensor<[1,128,1,1],f32>
    %float1.000000e-05_622 = torch.constant.float 1.000000e-05
    %int1_623 = torch.constant.int 1
    %638 = torch.aten.add.Scalar %result0_620, %float1.000000e-05_622, %int1_623 : !torch.vtensor<[1,128,1,1],f32>, !torch.float, !torch.int -> !torch.vtensor<[1,128,1,1],f32>
    %639 = torch.aten.rsqrt %638 : !torch.vtensor<[1,128,1,1],f32> -> !torch.vtensor<[1,128,1,1],f32>
    %int1_624 = torch.constant.int 1
    %640 = torch.aten.sub.Tensor %635, %result1_621, %int1_624 : !torch.vtensor<[3,128,64,64],f32>, !torch.vtensor<[1,128,1,1],f32>, !torch.int -> !torch.vtensor<[3,128,64,64],f32>
    %641 = torch.aten.mul.Tensor %640, %639 : !torch.vtensor<[3,128,64,64],f32>, !torch.vtensor<[1,128,1,1],f32> -> !torch.vtensor<[3,128,64,64],f32>
    %int3_625 = torch.constant.int 3
    %642 = torch.prim.ListConstruct %int3_625 : (!torch.int) -> !torch.list<int>
    %643 = torch.prims.squeeze %result1_621, %642 : !torch.vtensor<[1,128,1,1],f32>, !torch.list<int> -> !torch.vtensor<[1,128,1],f32>
    %int2_626 = torch.constant.int 2
    %644 = torch.prim.ListConstruct %int2_626 : (!torch.int) -> !torch.list<int>
    %645 = torch.prims.squeeze %643, %644 : !torch.vtensor<[1,128,1],f32>, !torch.list<int> -> !torch.vtensor<[1,128],f32>
    %int0_627 = torch.constant.int 0
    %646 = torch.prim.ListConstruct %int0_627 : (!torch.int) -> !torch.list<int>
    %647 = torch.prims.squeeze %645, %646 : !torch.vtensor<[1,128],f32>, !torch.list<int> -> !torch.vtensor<[128],f32>
    %float1.000000e-01_628 = torch.constant.float 1.000000e-01
    %648 = torch.aten.mul.Scalar %647, %float1.000000e-01_628 : !torch.vtensor<[128],f32>, !torch.float -> !torch.vtensor<[128],f32>
    %float9.000000e-01_629 = torch.constant.float 9.000000e-01
    %649 = torch.aten.mul.Scalar %arg48, %float9.000000e-01_629 : !torch.vtensor<[128],f32>, !torch.float -> !torch.vtensor<[128],f32>
    %int1_630 = torch.constant.int 1
    %650 = torch.aten.add.Tensor %648, %649, %int1_630 : !torch.vtensor<[128],f32>, !torch.vtensor<[128],f32>, !torch.int -> !torch.vtensor<[128],f32>
    %int3_631 = torch.constant.int 3
    %651 = torch.prim.ListConstruct %int3_631 : (!torch.int) -> !torch.list<int>
    %652 = torch.prims.squeeze %result0_620, %651 : !torch.vtensor<[1,128,1,1],f32>, !torch.list<int> -> !torch.vtensor<[1,128,1],f32>
    %int2_632 = torch.constant.int 2
    %653 = torch.prim.ListConstruct %int2_632 : (!torch.int) -> !torch.list<int>
    %654 = torch.prims.squeeze %652, %653 : !torch.vtensor<[1,128,1],f32>, !torch.list<int> -> !torch.vtensor<[1,128],f32>
    %int0_633 = torch.constant.int 0
    %655 = torch.prim.ListConstruct %int0_633 : (!torch.int) -> !torch.list<int>
    %656 = torch.prims.squeeze %654, %655 : !torch.vtensor<[1,128],f32>, !torch.list<int> -> !torch.vtensor<[128],f32>
    %float1.000080e00_634 = torch.constant.float 1.0000813868316107
    %657 = torch.aten.mul.Scalar %656, %float1.000080e00_634 : !torch.vtensor<[128],f32>, !torch.float -> !torch.vtensor<[128],f32>
    %float1.000000e-01_635 = torch.constant.float 1.000000e-01
    %658 = torch.aten.mul.Scalar %657, %float1.000000e-01_635 : !torch.vtensor<[128],f32>, !torch.float -> !torch.vtensor<[128],f32>
    %float9.000000e-01_636 = torch.constant.float 9.000000e-01
    %659 = torch.aten.mul.Scalar %arg49, %float9.000000e-01_636 : !torch.vtensor<[128],f32>, !torch.float -> !torch.vtensor<[128],f32>
    %int1_637 = torch.constant.int 1
    %660 = torch.aten.add.Tensor %658, %659, %int1_637 : !torch.vtensor<[128],f32>, !torch.vtensor<[128],f32>, !torch.int -> !torch.vtensor<[128],f32>
    %661 = torch.vtensor.literal(dense_resource<torch_tensor_128_torch.float32_6> : tensor<128xf32>) : !torch.vtensor<[128],f32>
    %int-1_638 = torch.constant.int -1
    %662 = torch.aten.unsqueeze %661, %int-1_638 : !torch.vtensor<[128],f32>, !torch.int -> !torch.vtensor<[128,1],f32>
    %int-1_639 = torch.constant.int -1
    %663 = torch.aten.unsqueeze %662, %int-1_639 : !torch.vtensor<[128,1],f32>, !torch.int -> !torch.vtensor<[128,1,1],f32>
    %664 = torch.aten.mul.Tensor %641, %663 : !torch.vtensor<[3,128,64,64],f32>, !torch.vtensor<[128,1,1],f32> -> !torch.vtensor<[3,128,64,64],f32>
    %665 = torch.vtensor.literal(dense_resource<torch_tensor_128_torch.float32_7> : tensor<128xf32>) : !torch.vtensor<[128],f32>
    %int-1_640 = torch.constant.int -1
    %666 = torch.aten.unsqueeze %665, %int-1_640 : !torch.vtensor<[128],f32>, !torch.int -> !torch.vtensor<[128,1],f32>
    %int-1_641 = torch.constant.int -1
    %667 = torch.aten.unsqueeze %666, %int-1_641 : !torch.vtensor<[128,1],f32>, !torch.int -> !torch.vtensor<[128,1,1],f32>
    %int1_642 = torch.constant.int 1
    %668 = torch.aten.add.Tensor %664, %667, %int1_642 : !torch.vtensor<[3,128,64,64],f32>, !torch.vtensor<[128,1,1],f32>, !torch.int -> !torch.vtensor<[3,128,64,64],f32>
    %669 = torch.aten.relu %668 : !torch.vtensor<[3,128,64,64],f32> -> !torch.vtensor<[3,128,64,64],f32>
    %670 = torch.vtensor.literal(dense_resource<torch_tensor_512_128_1_1_torch.float32_1> : tensor<512x128x1x1xf32>) : !torch.vtensor<[512,128,1,1],f32>
    %none_643 = torch.constant.none
    %int1_644 = torch.constant.int 1
    %int1_645 = torch.constant.int 1
    %671 = torch.prim.ListConstruct %int1_644, %int1_645 : (!torch.int, !torch.int) -> !torch.list<int>
    %int0_646 = torch.constant.int 0
    %int0_647 = torch.constant.int 0
    %672 = torch.prim.ListConstruct %int0_646, %int0_647 : (!torch.int, !torch.int) -> !torch.list<int>
    %int1_648 = torch.constant.int 1
    %int1_649 = torch.constant.int 1
    %673 = torch.prim.ListConstruct %int1_648, %int1_649 : (!torch.int, !torch.int) -> !torch.list<int>
    %int1_650 = torch.constant.int 1
    %674 = torch.aten.conv2d %669, %670, %none_643, %671, %672, %673, %int1_650 : !torch.vtensor<[3,128,64,64],f32>, !torch.vtensor<[512,128,1,1],f32>, !torch.none, !torch.list<int>, !torch.list<int>, !torch.list<int>, !torch.int -> !torch.vtensor<[3,512,64,64],f32>
    %int1_651 = torch.constant.int 1
    %int1_652 = torch.constant.int 1
    %675 = torch.aten.add.Scalar %arg53, %int1_651, %int1_652 : !torch.vtensor<[],si64>, !torch.int, !torch.int -> !torch.vtensor<[],si64>
    %int0_653 = torch.constant.int 0
    %int2_654 = torch.constant.int 2
    %int3_655 = torch.constant.int 3
    %676 = torch.prim.ListConstruct %int0_653, %int2_654, %int3_655 : (!torch.int, !torch.int, !torch.int) -> !torch.list<int>
    %int0_656 = torch.constant.int 0
    %true_657 = torch.constant.bool true
    %result0_658, %result1_659 = torch.aten.var_mean.correction %674, %676, %int0_656, %true_657 : !torch.vtensor<[3,512,64,64],f32>, !torch.list<int>, !torch.int, !torch.bool -> !torch.vtensor<[1,512,1,1],f32>, !torch.vtensor<[1,512,1,1],f32>
    %float1.000000e-05_660 = torch.constant.float 1.000000e-05
    %int1_661 = torch.constant.int 1
    %677 = torch.aten.add.Scalar %result0_658, %float1.000000e-05_660, %int1_661 : !torch.vtensor<[1,512,1,1],f32>, !torch.float, !torch.int -> !torch.vtensor<[1,512,1,1],f32>
    %678 = torch.aten.rsqrt %677 : !torch.vtensor<[1,512,1,1],f32> -> !torch.vtensor<[1,512,1,1],f32>
    %int1_662 = torch.constant.int 1
    %679 = torch.aten.sub.Tensor %674, %result1_659, %int1_662 : !torch.vtensor<[3,512,64,64],f32>, !torch.vtensor<[1,512,1,1],f32>, !torch.int -> !torch.vtensor<[3,512,64,64],f32>
    %680 = torch.aten.mul.Tensor %679, %678 : !torch.vtensor<[3,512,64,64],f32>, !torch.vtensor<[1,512,1,1],f32> -> !torch.vtensor<[3,512,64,64],f32>
    %int3_663 = torch.constant.int 3
    %681 = torch.prim.ListConstruct %int3_663 : (!torch.int) -> !torch.list<int>
    %682 = torch.prims.squeeze %result1_659, %681 : !torch.vtensor<[1,512,1,1],f32>, !torch.list<int> -> !torch.vtensor<[1,512,1],f32>
    %int2_664 = torch.constant.int 2
    %683 = torch.prim.ListConstruct %int2_664 : (!torch.int) -> !torch.list<int>
    %684 = torch.prims.squeeze %682, %683 : !torch.vtensor<[1,512,1],f32>, !torch.list<int> -> !torch.vtensor<[1,512],f32>
    %int0_665 = torch.constant.int 0
    %685 = torch.prim.ListConstruct %int0_665 : (!torch.int) -> !torch.list<int>
    %686 = torch.prims.squeeze %684, %685 : !torch.vtensor<[1,512],f32>, !torch.list<int> -> !torch.vtensor<[512],f32>
    %float1.000000e-01_666 = torch.constant.float 1.000000e-01
    %687 = torch.aten.mul.Scalar %686, %float1.000000e-01_666 : !torch.vtensor<[512],f32>, !torch.float -> !torch.vtensor<[512],f32>
    %float9.000000e-01_667 = torch.constant.float 9.000000e-01
    %688 = torch.aten.mul.Scalar %arg51, %float9.000000e-01_667 : !torch.vtensor<[512],f32>, !torch.float -> !torch.vtensor<[512],f32>
    %int1_668 = torch.constant.int 1
    %689 = torch.aten.add.Tensor %687, %688, %int1_668 : !torch.vtensor<[512],f32>, !torch.vtensor<[512],f32>, !torch.int -> !torch.vtensor<[512],f32>
    %int3_669 = torch.constant.int 3
    %690 = torch.prim.ListConstruct %int3_669 : (!torch.int) -> !torch.list<int>
    %691 = torch.prims.squeeze %result0_658, %690 : !torch.vtensor<[1,512,1,1],f32>, !torch.list<int> -> !torch.vtensor<[1,512,1],f32>
    %int2_670 = torch.constant.int 2
    %692 = torch.prim.ListConstruct %int2_670 : (!torch.int) -> !torch.list<int>
    %693 = torch.prims.squeeze %691, %692 : !torch.vtensor<[1,512,1],f32>, !torch.list<int> -> !torch.vtensor<[1,512],f32>
    %int0_671 = torch.constant.int 0
    %694 = torch.prim.ListConstruct %int0_671 : (!torch.int) -> !torch.list<int>
    %695 = torch.prims.squeeze %693, %694 : !torch.vtensor<[1,512],f32>, !torch.list<int> -> !torch.vtensor<[512],f32>
    %float1.000080e00_672 = torch.constant.float 1.0000813868316107
    %696 = torch.aten.mul.Scalar %695, %float1.000080e00_672 : !torch.vtensor<[512],f32>, !torch.float -> !torch.vtensor<[512],f32>
    %float1.000000e-01_673 = torch.constant.float 1.000000e-01
    %697 = torch.aten.mul.Scalar %696, %float1.000000e-01_673 : !torch.vtensor<[512],f32>, !torch.float -> !torch.vtensor<[512],f32>
    %float9.000000e-01_674 = torch.constant.float 9.000000e-01
    %698 = torch.aten.mul.Scalar %arg52, %float9.000000e-01_674 : !torch.vtensor<[512],f32>, !torch.float -> !torch.vtensor<[512],f32>
    %int1_675 = torch.constant.int 1
    %699 = torch.aten.add.Tensor %697, %698, %int1_675 : !torch.vtensor<[512],f32>, !torch.vtensor<[512],f32>, !torch.int -> !torch.vtensor<[512],f32>
    %700 = torch.vtensor.literal(dense_resource<torch_tensor_512_torch.float32_4> : tensor<512xf32>) : !torch.vtensor<[512],f32>
    %int-1_676 = torch.constant.int -1
    %701 = torch.aten.unsqueeze %700, %int-1_676 : !torch.vtensor<[512],f32>, !torch.int -> !torch.vtensor<[512,1],f32>
    %int-1_677 = torch.constant.int -1
    %702 = torch.aten.unsqueeze %701, %int-1_677 : !torch.vtensor<[512,1],f32>, !torch.int -> !torch.vtensor<[512,1,1],f32>
    %703 = torch.aten.mul.Tensor %680, %702 : !torch.vtensor<[3,512,64,64],f32>, !torch.vtensor<[512,1,1],f32> -> !torch.vtensor<[3,512,64,64],f32>
    %704 = torch.vtensor.literal(dense_resource<torch_tensor_512_torch.float32_5> : tensor<512xf32>) : !torch.vtensor<[512],f32>
    %int-1_678 = torch.constant.int -1
    %705 = torch.aten.unsqueeze %704, %int-1_678 : !torch.vtensor<[512],f32>, !torch.int -> !torch.vtensor<[512,1],f32>
    %int-1_679 = torch.constant.int -1
    %706 = torch.aten.unsqueeze %705, %int-1_679 : !torch.vtensor<[512,1],f32>, !torch.int -> !torch.vtensor<[512,1,1],f32>
    %int1_680 = torch.constant.int 1
    %707 = torch.aten.add.Tensor %703, %706, %int1_680 : !torch.vtensor<[3,512,64,64],f32>, !torch.vtensor<[512,1,1],f32>, !torch.int -> !torch.vtensor<[3,512,64,64],f32>
    %int1_681 = torch.constant.int 1
    %708 = torch.aten.add.Tensor %707, %591, %int1_681 : !torch.vtensor<[3,512,64,64],f32>, !torch.vtensor<[3,512,64,64],f32>, !torch.int -> !torch.vtensor<[3,512,64,64],f32>
    %709 = torch.aten.relu %708 : !torch.vtensor<[3,512,64,64],f32> -> !torch.vtensor<[3,512,64,64],f32>
    %710 = torch.vtensor.literal(dense_resource<torch_tensor_128_512_1_1_torch.float32_1> : tensor<128x512x1x1xf32>) : !torch.vtensor<[128,512,1,1],f32>
    %none_682 = torch.constant.none
    %int1_683 = torch.constant.int 1
    %int1_684 = torch.constant.int 1
    %711 = torch.prim.ListConstruct %int1_683, %int1_684 : (!torch.int, !torch.int) -> !torch.list<int>
    %int0_685 = torch.constant.int 0
    %int0_686 = torch.constant.int 0
    %712 = torch.prim.ListConstruct %int0_685, %int0_686 : (!torch.int, !torch.int) -> !torch.list<int>
    %int1_687 = torch.constant.int 1
    %int1_688 = torch.constant.int 1
    %713 = torch.prim.ListConstruct %int1_687, %int1_688 : (!torch.int, !torch.int) -> !torch.list<int>
    %int1_689 = torch.constant.int 1
    %714 = torch.aten.conv2d %709, %710, %none_682, %711, %712, %713, %int1_689 : !torch.vtensor<[3,512,64,64],f32>, !torch.vtensor<[128,512,1,1],f32>, !torch.none, !torch.list<int>, !torch.list<int>, !torch.list<int>, !torch.int -> !torch.vtensor<[3,128,64,64],f32>
    %int1_690 = torch.constant.int 1
    %int1_691 = torch.constant.int 1
    %715 = torch.aten.add.Scalar %arg56, %int1_690, %int1_691 : !torch.vtensor<[],si64>, !torch.int, !torch.int -> !torch.vtensor<[],si64>
    %int0_692 = torch.constant.int 0
    %int2_693 = torch.constant.int 2
    %int3_694 = torch.constant.int 3
    %716 = torch.prim.ListConstruct %int0_692, %int2_693, %int3_694 : (!torch.int, !torch.int, !torch.int) -> !torch.list<int>
    %int0_695 = torch.constant.int 0
    %true_696 = torch.constant.bool true
    %result0_697, %result1_698 = torch.aten.var_mean.correction %714, %716, %int0_695, %true_696 : !torch.vtensor<[3,128,64,64],f32>, !torch.list<int>, !torch.int, !torch.bool -> !torch.vtensor<[1,128,1,1],f32>, !torch.vtensor<[1,128,1,1],f32>
    %float1.000000e-05_699 = torch.constant.float 1.000000e-05
    %int1_700 = torch.constant.int 1
    %717 = torch.aten.add.Scalar %result0_697, %float1.000000e-05_699, %int1_700 : !torch.vtensor<[1,128,1,1],f32>, !torch.float, !torch.int -> !torch.vtensor<[1,128,1,1],f32>
    %718 = torch.aten.rsqrt %717 : !torch.vtensor<[1,128,1,1],f32> -> !torch.vtensor<[1,128,1,1],f32>
    %int1_701 = torch.constant.int 1
    %719 = torch.aten.sub.Tensor %714, %result1_698, %int1_701 : !torch.vtensor<[3,128,64,64],f32>, !torch.vtensor<[1,128,1,1],f32>, !torch.int -> !torch.vtensor<[3,128,64,64],f32>
    %720 = torch.aten.mul.Tensor %719, %718 : !torch.vtensor<[3,128,64,64],f32>, !torch.vtensor<[1,128,1,1],f32> -> !torch.vtensor<[3,128,64,64],f32>
    %int3_702 = torch.constant.int 3
    %721 = torch.prim.ListConstruct %int3_702 : (!torch.int) -> !torch.list<int>
    %722 = torch.prims.squeeze %result1_698, %721 : !torch.vtensor<[1,128,1,1],f32>, !torch.list<int> -> !torch.vtensor<[1,128,1],f32>
    %int2_703 = torch.constant.int 2
    %723 = torch.prim.ListConstruct %int2_703 : (!torch.int) -> !torch.list<int>
    %724 = torch.prims.squeeze %722, %723 : !torch.vtensor<[1,128,1],f32>, !torch.list<int> -> !torch.vtensor<[1,128],f32>
    %int0_704 = torch.constant.int 0
    %725 = torch.prim.ListConstruct %int0_704 : (!torch.int) -> !torch.list<int>
    %726 = torch.prims.squeeze %724, %725 : !torch.vtensor<[1,128],f32>, !torch.list<int> -> !torch.vtensor<[128],f32>
    %float1.000000e-01_705 = torch.constant.float 1.000000e-01
    %727 = torch.aten.mul.Scalar %726, %float1.000000e-01_705 : !torch.vtensor<[128],f32>, !torch.float -> !torch.vtensor<[128],f32>
    %float9.000000e-01_706 = torch.constant.float 9.000000e-01
    %728 = torch.aten.mul.Scalar %arg54, %float9.000000e-01_706 : !torch.vtensor<[128],f32>, !torch.float -> !torch.vtensor<[128],f32>
    %int1_707 = torch.constant.int 1
    %729 = torch.aten.add.Tensor %727, %728, %int1_707 : !torch.vtensor<[128],f32>, !torch.vtensor<[128],f32>, !torch.int -> !torch.vtensor<[128],f32>
    %int3_708 = torch.constant.int 3
    %730 = torch.prim.ListConstruct %int3_708 : (!torch.int) -> !torch.list<int>
    %731 = torch.prims.squeeze %result0_697, %730 : !torch.vtensor<[1,128,1,1],f32>, !torch.list<int> -> !torch.vtensor<[1,128,1],f32>
    %int2_709 = torch.constant.int 2
    %732 = torch.prim.ListConstruct %int2_709 : (!torch.int) -> !torch.list<int>
    %733 = torch.prims.squeeze %731, %732 : !torch.vtensor<[1,128,1],f32>, !torch.list<int> -> !torch.vtensor<[1,128],f32>
    %int0_710 = torch.constant.int 0
    %734 = torch.prim.ListConstruct %int0_710 : (!torch.int) -> !torch.list<int>
    %735 = torch.prims.squeeze %733, %734 : !torch.vtensor<[1,128],f32>, !torch.list<int> -> !torch.vtensor<[128],f32>
    %float1.000080e00_711 = torch.constant.float 1.0000813868316107
    %736 = torch.aten.mul.Scalar %735, %float1.000080e00_711 : !torch.vtensor<[128],f32>, !torch.float -> !torch.vtensor<[128],f32>
    %float1.000000e-01_712 = torch.constant.float 1.000000e-01
    %737 = torch.aten.mul.Scalar %736, %float1.000000e-01_712 : !torch.vtensor<[128],f32>, !torch.float -> !torch.vtensor<[128],f32>
    %float9.000000e-01_713 = torch.constant.float 9.000000e-01
    %738 = torch.aten.mul.Scalar %arg55, %float9.000000e-01_713 : !torch.vtensor<[128],f32>, !torch.float -> !torch.vtensor<[128],f32>
    %int1_714 = torch.constant.int 1
    %739 = torch.aten.add.Tensor %737, %738, %int1_714 : !torch.vtensor<[128],f32>, !torch.vtensor<[128],f32>, !torch.int -> !torch.vtensor<[128],f32>
    %740 = torch.vtensor.literal(dense_resource<torch_tensor_128_torch.float32_8> : tensor<128xf32>) : !torch.vtensor<[128],f32>
    %int-1_715 = torch.constant.int -1
    %741 = torch.aten.unsqueeze %740, %int-1_715 : !torch.vtensor<[128],f32>, !torch.int -> !torch.vtensor<[128,1],f32>
    %int-1_716 = torch.constant.int -1
    %742 = torch.aten.unsqueeze %741, %int-1_716 : !torch.vtensor<[128,1],f32>, !torch.int -> !torch.vtensor<[128,1,1],f32>
    %743 = torch.aten.mul.Tensor %720, %742 : !torch.vtensor<[3,128,64,64],f32>, !torch.vtensor<[128,1,1],f32> -> !torch.vtensor<[3,128,64,64],f32>
    %744 = torch.vtensor.literal(dense_resource<torch_tensor_128_torch.float32_9> : tensor<128xf32>) : !torch.vtensor<[128],f32>
    %int-1_717 = torch.constant.int -1
    %745 = torch.aten.unsqueeze %744, %int-1_717 : !torch.vtensor<[128],f32>, !torch.int -> !torch.vtensor<[128,1],f32>
    %int-1_718 = torch.constant.int -1
    %746 = torch.aten.unsqueeze %745, %int-1_718 : !torch.vtensor<[128,1],f32>, !torch.int -> !torch.vtensor<[128,1,1],f32>
    %int1_719 = torch.constant.int 1
    %747 = torch.aten.add.Tensor %743, %746, %int1_719 : !torch.vtensor<[3,128,64,64],f32>, !torch.vtensor<[128,1,1],f32>, !torch.int -> !torch.vtensor<[3,128,64,64],f32>
    %748 = torch.aten.relu %747 : !torch.vtensor<[3,128,64,64],f32> -> !torch.vtensor<[3,128,64,64],f32>
    %749 = torch.vtensor.literal(dense_resource<torch_tensor_128_128_3_3_torch.float32_2> : tensor<128x128x3x3xf32>) : !torch.vtensor<[128,128,3,3],f32>
    %none_720 = torch.constant.none
    %int1_721 = torch.constant.int 1
    %int1_722 = torch.constant.int 1
    %750 = torch.prim.ListConstruct %int1_721, %int1_722 : (!torch.int, !torch.int) -> !torch.list<int>
    %int1_723 = torch.constant.int 1
    %int1_724 = torch.constant.int 1
    %751 = torch.prim.ListConstruct %int1_723, %int1_724 : (!torch.int, !torch.int) -> !torch.list<int>
    %int1_725 = torch.constant.int 1
    %int1_726 = torch.constant.int 1
    %752 = torch.prim.ListConstruct %int1_725, %int1_726 : (!torch.int, !torch.int) -> !torch.list<int>
    %int1_727 = torch.constant.int 1
    %753 = torch.aten.conv2d %748, %749, %none_720, %750, %751, %752, %int1_727 : !torch.vtensor<[3,128,64,64],f32>, !torch.vtensor<[128,128,3,3],f32>, !torch.none, !torch.list<int>, !torch.list<int>, !torch.list<int>, !torch.int -> !torch.vtensor<[3,128,64,64],f32>
    %int1_728 = torch.constant.int 1
    %int1_729 = torch.constant.int 1
    %754 = torch.aten.add.Scalar %arg59, %int1_728, %int1_729 : !torch.vtensor<[],si64>, !torch.int, !torch.int -> !torch.vtensor<[],si64>
    %int0_730 = torch.constant.int 0
    %int2_731 = torch.constant.int 2
    %int3_732 = torch.constant.int 3
    %755 = torch.prim.ListConstruct %int0_730, %int2_731, %int3_732 : (!torch.int, !torch.int, !torch.int) -> !torch.list<int>
    %int0_733 = torch.constant.int 0
    %true_734 = torch.constant.bool true
    %result0_735, %result1_736 = torch.aten.var_mean.correction %753, %755, %int0_733, %true_734 : !torch.vtensor<[3,128,64,64],f32>, !torch.list<int>, !torch.int, !torch.bool -> !torch.vtensor<[1,128,1,1],f32>, !torch.vtensor<[1,128,1,1],f32>
    %float1.000000e-05_737 = torch.constant.float 1.000000e-05
    %int1_738 = torch.constant.int 1
    %756 = torch.aten.add.Scalar %result0_735, %float1.000000e-05_737, %int1_738 : !torch.vtensor<[1,128,1,1],f32>, !torch.float, !torch.int -> !torch.vtensor<[1,128,1,1],f32>
    %757 = torch.aten.rsqrt %756 : !torch.vtensor<[1,128,1,1],f32> -> !torch.vtensor<[1,128,1,1],f32>
    %int1_739 = torch.constant.int 1
    %758 = torch.aten.sub.Tensor %753, %result1_736, %int1_739 : !torch.vtensor<[3,128,64,64],f32>, !torch.vtensor<[1,128,1,1],f32>, !torch.int -> !torch.vtensor<[3,128,64,64],f32>
    %759 = torch.aten.mul.Tensor %758, %757 : !torch.vtensor<[3,128,64,64],f32>, !torch.vtensor<[1,128,1,1],f32> -> !torch.vtensor<[3,128,64,64],f32>
    %int3_740 = torch.constant.int 3
    %760 = torch.prim.ListConstruct %int3_740 : (!torch.int) -> !torch.list<int>
    %761 = torch.prims.squeeze %result1_736, %760 : !torch.vtensor<[1,128,1,1],f32>, !torch.list<int> -> !torch.vtensor<[1,128,1],f32>
    %int2_741 = torch.constant.int 2
    %762 = torch.prim.ListConstruct %int2_741 : (!torch.int) -> !torch.list<int>
    %763 = torch.prims.squeeze %761, %762 : !torch.vtensor<[1,128,1],f32>, !torch.list<int> -> !torch.vtensor<[1,128],f32>
    %int0_742 = torch.constant.int 0
    %764 = torch.prim.ListConstruct %int0_742 : (!torch.int) -> !torch.list<int>
    %765 = torch.prims.squeeze %763, %764 : !torch.vtensor<[1,128],f32>, !torch.list<int> -> !torch.vtensor<[128],f32>
    %float1.000000e-01_743 = torch.constant.float 1.000000e-01
    %766 = torch.aten.mul.Scalar %765, %float1.000000e-01_743 : !torch.vtensor<[128],f32>, !torch.float -> !torch.vtensor<[128],f32>
    %float9.000000e-01_744 = torch.constant.float 9.000000e-01
    %767 = torch.aten.mul.Scalar %arg57, %float9.000000e-01_744 : !torch.vtensor<[128],f32>, !torch.float -> !torch.vtensor<[128],f32>
    %int1_745 = torch.constant.int 1
    %768 = torch.aten.add.Tensor %766, %767, %int1_745 : !torch.vtensor<[128],f32>, !torch.vtensor<[128],f32>, !torch.int -> !torch.vtensor<[128],f32>
    %int3_746 = torch.constant.int 3
    %769 = torch.prim.ListConstruct %int3_746 : (!torch.int) -> !torch.list<int>
    %770 = torch.prims.squeeze %result0_735, %769 : !torch.vtensor<[1,128,1,1],f32>, !torch.list<int> -> !torch.vtensor<[1,128,1],f32>
    %int2_747 = torch.constant.int 2
    %771 = torch.prim.ListConstruct %int2_747 : (!torch.int) -> !torch.list<int>
    %772 = torch.prims.squeeze %770, %771 : !torch.vtensor<[1,128,1],f32>, !torch.list<int> -> !torch.vtensor<[1,128],f32>
    %int0_748 = torch.constant.int 0
    %773 = torch.prim.ListConstruct %int0_748 : (!torch.int) -> !torch.list<int>
    %774 = torch.prims.squeeze %772, %773 : !torch.vtensor<[1,128],f32>, !torch.list<int> -> !torch.vtensor<[128],f32>
    %float1.000080e00_749 = torch.constant.float 1.0000813868316107
    %775 = torch.aten.mul.Scalar %774, %float1.000080e00_749 : !torch.vtensor<[128],f32>, !torch.float -> !torch.vtensor<[128],f32>
    %float1.000000e-01_750 = torch.constant.float 1.000000e-01
    %776 = torch.aten.mul.Scalar %775, %float1.000000e-01_750 : !torch.vtensor<[128],f32>, !torch.float -> !torch.vtensor<[128],f32>
    %float9.000000e-01_751 = torch.constant.float 9.000000e-01
    %777 = torch.aten.mul.Scalar %arg58, %float9.000000e-01_751 : !torch.vtensor<[128],f32>, !torch.float -> !torch.vtensor<[128],f32>
    %int1_752 = torch.constant.int 1
    %778 = torch.aten.add.Tensor %776, %777, %int1_752 : !torch.vtensor<[128],f32>, !torch.vtensor<[128],f32>, !torch.int -> !torch.vtensor<[128],f32>
    %779 = torch.vtensor.literal(dense_resource<torch_tensor_128_torch.float32_10> : tensor<128xf32>) : !torch.vtensor<[128],f32>
    %int-1_753 = torch.constant.int -1
    %780 = torch.aten.unsqueeze %779, %int-1_753 : !torch.vtensor<[128],f32>, !torch.int -> !torch.vtensor<[128,1],f32>
    %int-1_754 = torch.constant.int -1
    %781 = torch.aten.unsqueeze %780, %int-1_754 : !torch.vtensor<[128,1],f32>, !torch.int -> !torch.vtensor<[128,1,1],f32>
    %782 = torch.aten.mul.Tensor %759, %781 : !torch.vtensor<[3,128,64,64],f32>, !torch.vtensor<[128,1,1],f32> -> !torch.vtensor<[3,128,64,64],f32>
    %783 = torch.vtensor.literal(dense_resource<torch_tensor_128_torch.float32_11> : tensor<128xf32>) : !torch.vtensor<[128],f32>
    %int-1_755 = torch.constant.int -1
    %784 = torch.aten.unsqueeze %783, %int-1_755 : !torch.vtensor<[128],f32>, !torch.int -> !torch.vtensor<[128,1],f32>
    %int-1_756 = torch.constant.int -1
    %785 = torch.aten.unsqueeze %784, %int-1_756 : !torch.vtensor<[128,1],f32>, !torch.int -> !torch.vtensor<[128,1,1],f32>
    %int1_757 = torch.constant.int 1
    %786 = torch.aten.add.Tensor %782, %785, %int1_757 : !torch.vtensor<[3,128,64,64],f32>, !torch.vtensor<[128,1,1],f32>, !torch.int -> !torch.vtensor<[3,128,64,64],f32>
    %787 = torch.aten.relu %786 : !torch.vtensor<[3,128,64,64],f32> -> !torch.vtensor<[3,128,64,64],f32>
    %788 = torch.vtensor.literal(dense_resource<torch_tensor_512_128_1_1_torch.float32_2> : tensor<512x128x1x1xf32>) : !torch.vtensor<[512,128,1,1],f32>
    %none_758 = torch.constant.none
    %int1_759 = torch.constant.int 1
    %int1_760 = torch.constant.int 1
    %789 = torch.prim.ListConstruct %int1_759, %int1_760 : (!torch.int, !torch.int) -> !torch.list<int>
    %int0_761 = torch.constant.int 0
    %int0_762 = torch.constant.int 0
    %790 = torch.prim.ListConstruct %int0_761, %int0_762 : (!torch.int, !torch.int) -> !torch.list<int>
    %int1_763 = torch.constant.int 1
    %int1_764 = torch.constant.int 1
    %791 = torch.prim.ListConstruct %int1_763, %int1_764 : (!torch.int, !torch.int) -> !torch.list<int>
    %int1_765 = torch.constant.int 1
    %792 = torch.aten.conv2d %787, %788, %none_758, %789, %790, %791, %int1_765 : !torch.vtensor<[3,128,64,64],f32>, !torch.vtensor<[512,128,1,1],f32>, !torch.none, !torch.list<int>, !torch.list<int>, !torch.list<int>, !torch.int -> !torch.vtensor<[3,512,64,64],f32>
    %int1_766 = torch.constant.int 1
    %int1_767 = torch.constant.int 1
    %793 = torch.aten.add.Scalar %arg62, %int1_766, %int1_767 : !torch.vtensor<[],si64>, !torch.int, !torch.int -> !torch.vtensor<[],si64>
    %int0_768 = torch.constant.int 0
    %int2_769 = torch.constant.int 2
    %int3_770 = torch.constant.int 3
    %794 = torch.prim.ListConstruct %int0_768, %int2_769, %int3_770 : (!torch.int, !torch.int, !torch.int) -> !torch.list<int>
    %int0_771 = torch.constant.int 0
    %true_772 = torch.constant.bool true
    %result0_773, %result1_774 = torch.aten.var_mean.correction %792, %794, %int0_771, %true_772 : !torch.vtensor<[3,512,64,64],f32>, !torch.list<int>, !torch.int, !torch.bool -> !torch.vtensor<[1,512,1,1],f32>, !torch.vtensor<[1,512,1,1],f32>
    %float1.000000e-05_775 = torch.constant.float 1.000000e-05
    %int1_776 = torch.constant.int 1
    %795 = torch.aten.add.Scalar %result0_773, %float1.000000e-05_775, %int1_776 : !torch.vtensor<[1,512,1,1],f32>, !torch.float, !torch.int -> !torch.vtensor<[1,512,1,1],f32>
    %796 = torch.aten.rsqrt %795 : !torch.vtensor<[1,512,1,1],f32> -> !torch.vtensor<[1,512,1,1],f32>
    %int1_777 = torch.constant.int 1
    %797 = torch.aten.sub.Tensor %792, %result1_774, %int1_777 : !torch.vtensor<[3,512,64,64],f32>, !torch.vtensor<[1,512,1,1],f32>, !torch.int -> !torch.vtensor<[3,512,64,64],f32>
    %798 = torch.aten.mul.Tensor %797, %796 : !torch.vtensor<[3,512,64,64],f32>, !torch.vtensor<[1,512,1,1],f32> -> !torch.vtensor<[3,512,64,64],f32>
    %int3_778 = torch.constant.int 3
    %799 = torch.prim.ListConstruct %int3_778 : (!torch.int) -> !torch.list<int>
    %800 = torch.prims.squeeze %result1_774, %799 : !torch.vtensor<[1,512,1,1],f32>, !torch.list<int> -> !torch.vtensor<[1,512,1],f32>
    %int2_779 = torch.constant.int 2
    %801 = torch.prim.ListConstruct %int2_779 : (!torch.int) -> !torch.list<int>
    %802 = torch.prims.squeeze %800, %801 : !torch.vtensor<[1,512,1],f32>, !torch.list<int> -> !torch.vtensor<[1,512],f32>
    %int0_780 = torch.constant.int 0
    %803 = torch.prim.ListConstruct %int0_780 : (!torch.int) -> !torch.list<int>
    %804 = torch.prims.squeeze %802, %803 : !torch.vtensor<[1,512],f32>, !torch.list<int> -> !torch.vtensor<[512],f32>
    %float1.000000e-01_781 = torch.constant.float 1.000000e-01
    %805 = torch.aten.mul.Scalar %804, %float1.000000e-01_781 : !torch.vtensor<[512],f32>, !torch.float -> !torch.vtensor<[512],f32>
    %float9.000000e-01_782 = torch.constant.float 9.000000e-01
    %806 = torch.aten.mul.Scalar %arg60, %float9.000000e-01_782 : !torch.vtensor<[512],f32>, !torch.float -> !torch.vtensor<[512],f32>
    %int1_783 = torch.constant.int 1
    %807 = torch.aten.add.Tensor %805, %806, %int1_783 : !torch.vtensor<[512],f32>, !torch.vtensor<[512],f32>, !torch.int -> !torch.vtensor<[512],f32>
    %int3_784 = torch.constant.int 3
    %808 = torch.prim.ListConstruct %int3_784 : (!torch.int) -> !torch.list<int>
    %809 = torch.prims.squeeze %result0_773, %808 : !torch.vtensor<[1,512,1,1],f32>, !torch.list<int> -> !torch.vtensor<[1,512,1],f32>
    %int2_785 = torch.constant.int 2
    %810 = torch.prim.ListConstruct %int2_785 : (!torch.int) -> !torch.list<int>
    %811 = torch.prims.squeeze %809, %810 : !torch.vtensor<[1,512,1],f32>, !torch.list<int> -> !torch.vtensor<[1,512],f32>
    %int0_786 = torch.constant.int 0
…
    %int-1_1786 = torch.constant.int -1
    %1840 = torch.aten.unsqueeze %1839, %int-1_1786 : !torch.vtensor<[2048,1],f32>, !torch.int -> !torch.vtensor<[2048,1,1],f32>
    %1841 = torch.aten.mul.Tensor %1818, %1840 : !torch.vtensor<[3,2048,16,16],f32>, !torch.vtensor<[2048,1,1],f32> -> !torch.vtensor<[3,2048,16,16],f32>
    %1842 = torch.vtensor.literal(dense_resource<torch_tensor_2048_torch.float32_3> : tensor<2048xf32>) : !torch.vtensor<[2048],f32>
    %int-1_1787 = torch.constant.int -1
    %1843 = torch.aten.unsqueeze %1842, %int-1_1787 : !torch.vtensor<[2048],f32>, !torch.int -> !torch.vtensor<[2048,1],f32>
    %int-1_1788 = torch.constant.int -1
    %1844 = torch.aten.unsqueeze %1843, %int-1_1788 : !torch.vtensor<[2048,1],f32>, !torch.int -> !torch.vtensor<[2048,1,1],f32>
    %int1_1789 = torch.constant.int 1
    %1845 = torch.aten.add.Tensor %1841, %1844, %int1_1789 : !torch.vtensor<[3,2048,16,16],f32>, !torch.vtensor<[2048,1,1],f32>, !torch.int -> !torch.vtensor<[3,2048,16,16],f32>
    %int1_1790 = torch.constant.int 1
    %1846 = torch.aten.add.Tensor %1845, %1729, %int1_1790 : !torch.vtensor<[3,2048,16,16],f32>, !torch.vtensor<[3,2048,16,16],f32>, !torch.int -> !torch.vtensor<[3,2048,16,16],f32>
    %1847 = torch.aten.relu %1846 : !torch.vtensor<[3,2048,16,16],f32> -> !torch.vtensor<[3,2048,16,16],f32>
    %1848 = torch.vtensor.literal(dense_resource<torch_tensor_512_2048_1_1_torch.float32> : tensor<512x2048x1x1xf32>) : !torch.vtensor<[512,2048,1,1],f32>
    %none_1791 = torch.constant.none
    %int1_1792 = torch.constant.int 1
    %int1_1793 = torch.constant.int 1
    %1849 = torch.prim.ListConstruct %int1_1792, %int1_1793 : (!torch.int, !torch.int) -> !torch.list<int>
    %int0_1794 = torch.constant.int 0
    %int0_1795 = torch.constant.int 0
    %1850 = torch.prim.ListConstruct %int0_1794, %int0_1795 : (!torch.int, !torch.int) -> !torch.list<int>
    %int1_1796 = torch.constant.int 1
    %int1_1797 = torch.constant.int 1
    %1851 = torch.prim.ListConstruct %int1_1796, %int1_1797 : (!torch.int, !torch.int) -> !torch.list<int>
    %int1_1798 = torch.constant.int 1
    %1852 = torch.aten.conv2d %1847, %1848, %none_1791, %1849, %1850, %1851, %int1_1798 : !torch.vtensor<[3,2048,16,16],f32>, !torch.vtensor<[512,2048,1,1],f32>, !torch.none, !torch.list<int>, !torch.list<int>, !torch.list<int>, !torch.int -> !torch.vtensor<[3,512,16,16],f32>
    %int1_1799 = torch.constant.int 1
    %int1_1800 = torch.constant.int 1
    %1853 = torch.aten.add.Scalar %arg143, %int1_1799, %int1_1800 : !torch.vtensor<[],si64>, !torch.int, !torch.int -> !torch.vtensor<[],si64>
    %int0_1801 = torch.constant.int 0
    %int2_1802 = torch.constant.int 2
    %int3_1803 = torch.constant.int 3
    %1854 = torch.prim.ListConstruct %int0_1801, %int2_1802, %int3_1803 : (!torch.int, !torch.int, !torch.int) -> !torch.list<int>
    %int0_1804 = torch.constant.int 0
    %true_1805 = torch.constant.bool true
    %result0_1806, %result1_1807 = torch.aten.var_mean.correction %1852, %1854, %int0_1804, %true_1805 : !torch.vtensor<[3,512,16,16],f32>, !torch.list<int>, !torch.int, !torch.bool -> !torch.vtensor<[1,512,1,1],f32>, !torch.vtensor<[1,512,1,1],f32>
    %float1.000000e-05_1808 = torch.constant.float 1.000000e-05
    %int1_1809 = torch.constant.int 1
    %1855 = torch.aten.add.Scalar %result0_1806, %float1.000000e-05_1808, %int1_1809 : !torch.vtensor<[1,512,1,1],f32>, !torch.float, !torch.int -> !torch.vtensor<[1,512,1,1],f32>
    %1856 = torch.aten.rsqrt %1855 : !torch.vtensor<[1,512,1,1],f32> -> !torch.vtensor<[1,512,1,1],f32>
    %int1_1810 = torch.constant.int 1
    %1857 = torch.aten.sub.Tensor %1852, %result1_1807, %int1_1810 : !torch.vtensor<[3,512,16,16],f32>, !torch.vtensor<[1,512,1,1],f32>, !torch.int -> !torch.vtensor<[3,512,16,16],f32>
    %1858 = torch.aten.mul.Tensor %1857, %1856 : !torch.vtensor<[3,512,16,16],f32>, !torch.vtensor<[1,512,1,1],f32> -> !torch.vtensor<[3,512,16,16],f32>
    %int3_1811 = torch.constant.int 3
    %1859 = torch.prim.ListConstruct %int3_1811 : (!torch.int) -> !torch.list<int>
    %1860 = torch.prims.squeeze %result1_1807, %1859 : !torch.vtensor<[1,512,1,1],f32>, !torch.list<int> -> !torch.vtensor<[1,512,1],f32>
    %int2_1812 = torch.constant.int 2
    %1861 = torch.prim.ListConstruct %int2_1812 : (!torch.int) -> !torch.list<int>
    %1862 = torch.prims.squeeze %1860, %1861 : !torch.vtensor<[1,512,1],f32>, !torch.list<int> -> !torch.vtensor<[1,512],f32>
    %int0_1813 = torch.constant.int 0
    %1863 = torch.prim.ListConstruct %int0_1813 : (!torch.int) -> !torch.list<int>
    %1864 = torch.prims.squeeze %1862, %1863 : !torch.vtensor<[1,512],f32>, !torch.list<int> -> !torch.vtensor<[512],f32>
    %float1.000000e-01_1814 = torch.constant.float 1.000000e-01
    %1865 = torch.aten.mul.Scalar %1864, %float1.000000e-01_1814 : !torch.vtensor<[512],f32>, !torch.float -> !torch.vtensor<[512],f32>
    %float9.000000e-01_1815 = torch.constant.float 9.000000e-01
    %1866 = torch.aten.mul.Scalar %arg141, %float9.000000e-01_1815 : !torch.vtensor<[512],f32>, !torch.float -> !torch.vtensor<[512],f32>
    %int1_1816 = torch.constant.int 1
    %1867 = torch.aten.add.Tensor %1865, %1866, %int1_1816 : !torch.vtensor<[512],f32>, !torch.vtensor<[512],f32>, !torch.int -> !torch.vtensor<[512],f32>
    %int3_1817 = torch.constant.int 3
    %1868 = torch.prim.ListConstruct %int3_1817 : (!torch.int) -> !torch.list<int>
    %1869 = torch.prims.squeeze %result0_1806, %1868 : !torch.vtensor<[1,512,1,1],f32>, !torch.list<int> -> !torch.vtensor<[1,512,1],f32>
    %int2_1818 = torch.constant.int 2
    %1870 = torch.prim.ListConstruct %int2_1818 : (!torch.int) -> !torch.list<int>
    %1871 = torch.prims.squeeze %1869, %1870 : !torch.vtensor<[1,512,1],f32>, !torch.list<int> -> !torch.vtensor<[1,512],f32>
    %int0_1819 = torch.constant.int 0
    %1872 = torch.prim.ListConstruct %int0_1819 : (!torch.int) -> !torch.list<int>
    %1873 = torch.prims.squeeze %1871, %1872 : !torch.vtensor<[1,512],f32>, !torch.list<int> -> !torch.vtensor<[512],f32>
    %float1.001300e00_1820 = torch.constant.float 1.001303780964798
    %1874 = torch.aten.mul.Scalar %1873, %float1.001300e00_1820 : !torch.vtensor<[512],f32>, !torch.float -> !torch.vtensor<[512],f32>
    %float1.000000e-01_1821 = torch.constant.float 1.000000e-01
    %1875 = torch.aten.mul.Scalar %1874, %float1.000000e-01_1821 : !torch.vtensor<[512],f32>, !torch.float -> !torch.vtensor<[512],f32>
    %float9.000000e-01_1822 = torch.constant.float 9.000000e-01
    %1876 = torch.aten.mul.Scalar %arg142, %float9.000000e-01_1822 : !torch.vtensor<[512],f32>, !torch.float -> !torch.vtensor<[512],f32>
    %int1_1823 = torch.constant.int 1
    %1877 = torch.aten.add.Tensor %1875, %1876, %int1_1823 : !torch.vtensor<[512],f32>, !torch.vtensor<[512],f32>, !torch.int -> !torch.vtensor<[512],f32>
    %1878 = torch.vtensor.literal(dense_resource<torch_tensor_512_torch.float32_14> : tensor<512xf32>) : !torch.vtensor<[512],f32>
    %int-1_1824 = torch.constant.int -1
    %1879 = torch.aten.unsqueeze %1878, %int-1_1824 : !torch.vtensor<[512],f32>, !torch.int -> !torch.vtensor<[512,1],f32>
    %int-1_1825 = torch.constant.int -1
    %1880 = torch.aten.unsqueeze %1879, %int-1_1825 : !torch.vtensor<[512,1],f32>, !torch.int -> !torch.vtensor<[512,1,1],f32>
    %1881 = torch.aten.mul.Tensor %1858, %1880 : !torch.vtensor<[3,512,16,16],f32>, !torch.vtensor<[512,1,1],f32> -> !torch.vtensor<[3,512,16,16],f32>
    %1882 = torch.vtensor.literal(dense_resource<torch_tensor_512_torch.float32_15> : tensor<512xf32>) : !torch.vtensor<[512],f32>
    %int-1_1826 = torch.constant.int -1
    %1883 = torch.aten.unsqueeze %1882, %int-1_1826 : !torch.vtensor<[512],f32>, !torch.int -> !torch.vtensor<[512,1],f32>
    %int-1_1827 = torch.constant.int -1
    %1884 = torch.aten.unsqueeze %1883, %int-1_1827 : !torch.vtensor<[512,1],f32>, !torch.int -> !torch.vtensor<[512,1,1],f32>
    %int1_1828 = torch.constant.int 1
    %1885 = torch.aten.add.Tensor %1881, %1884, %int1_1828 : !torch.vtensor<[3,512,16,16],f32>, !torch.vtensor<[512,1,1],f32>, !torch.int -> !torch.vtensor<[3,512,16,16],f32>
    %1886 = torch.aten.relu %1885 : !torch.vtensor<[3,512,16,16],f32> -> !torch.vtensor<[3,512,16,16],f32>
    %1887 = torch.vtensor.literal(dense_resource<torch_tensor_512_512_3_3_torch.float32_1> : tensor<512x512x3x3xf32>) : !torch.vtensor<[512,512,3,3],f32>
    %none_1829 = torch.constant.none
    %int1_1830 = torch.constant.int 1
    %int1_1831 = torch.constant.int 1
    %1888 = torch.prim.ListConstruct %int1_1830, %int1_1831 : (!torch.int, !torch.int) -> !torch.list<int>
    %int1_1832 = torch.constant.int 1
    %int1_1833 = torch.constant.int 1
    %1889 = torch.prim.ListConstruct %int1_1832, %int1_1833 : (!torch.int, !torch.int) -> !torch.list<int>
    %int1_1834 = torch.constant.int 1
    %int1_1835 = torch.constant.int 1
    %1890 = torch.prim.ListConstruct %int1_1834, %int1_1835 : (!torch.int, !torch.int) -> !torch.list<int>
    %int1_1836 = torch.constant.int 1
    %1891 = torch.aten.conv2d %1886, %1887, %none_1829, %1888, %1889, %1890, %int1_1836 : !torch.vtensor<[3,512,16,16],f32>, !torch.vtensor<[512,512,3,3],f32>, !torch.none, !torch.list<int>, !torch.list<int>, !torch.list<int>, !torch.int -> !torch.vtensor<[3,512,16,16],f32>
    %int1_1837 = torch.constant.int 1
    %int1_1838 = torch.constant.int 1
    %1892 = torch.aten.add.Scalar %arg146, %int1_1837, %int1_1838 : !torch.vtensor<[],si64>, !torch.int, !torch.int -> !torch.vtensor<[],si64>
    %int0_1839 = torch.constant.int 0
    %int2_1840 = torch.constant.int 2
    %int3_1841 = torch.constant.int 3
    %1893 = torch.prim.ListConstruct %int0_1839, %int2_1840, %int3_1841 : (!torch.int, !torch.int, !torch.int) -> !torch.list<int>
    %int0_1842 = torch.constant.int 0
    %true_1843 = torch.constant.bool true
    %result0_1844, %result1_1845 = torch.aten.var_mean.correction %1891, %1893, %int0_1842, %true_1843 : !torch.vtensor<[3,512,16,16],f32>, !torch.list<int>, !torch.int, !torch.bool -> !torch.vtensor<[1,512,1,1],f32>, !torch.vtensor<[1,512,1,1],f32>
    %float1.000000e-05_1846 = torch.constant.float 1.000000e-05
    %int1_1847 = torch.constant.int 1
    %1894 = torch.aten.add.Scalar %result0_1844, %float1.000000e-05_1846, %int1_1847 : !torch.vtensor<[1,512,1,1],f32>, !torch.float, !torch.int -> !torch.vtensor<[1,512,1,1],f32>
    %1895 = torch.aten.rsqrt %1894 : !torch.vtensor<[1,512,1,1],f32> -> !torch.vtensor<[1,512,1,1],f32>
    %int1_1848 = torch.constant.int 1
    %1896 = torch.aten.sub.Tensor %1891, %result1_1845, %int1_1848 : !torch.vtensor<[3,512,16,16],f32>, !torch.vtensor<[1,512,1,1],f32>, !torch.int -> !torch.vtensor<[3,512,16,16],f32>
    %1897 = torch.aten.mul.Tensor %1896, %1895 : !torch.vtensor<[3,512,16,16],f32>, !torch.vtensor<[1,512,1,1],f32> -> !torch.vtensor<[3,512,16,16],f32>
    %int3_1849 = torch.constant.int 3
    %1898 = torch.prim.ListConstruct %int3_1849 : (!torch.int) -> !torch.list<int>
    %1899 = torch.prims.squeeze %result1_1845, %1898 : !torch.vtensor<[1,512,1,1],f32>, !torch.list<int> -> !torch.vtensor<[1,512,1],f32>
    %int2_1850 = torch.constant.int 2
    %1900 = torch.prim.ListConstruct %int2_1850 : (!torch.int) -> !torch.list<int>
    %1901 = torch.prims.squeeze %1899, %1900 : !torch.vtensor<[1,512,1],f32>, !torch.list<int> -> !torch.vtensor<[1,512],f32>
    %int0_1851 = torch.constant.int 0
    %1902 = torch.prim.ListConstruct %int0_1851 : (!torch.int) -> !torch.list<int>
    %1903 = torch.prims.squeeze %1901, %1902 : !torch.vtensor<[1,512],f32>, !torch.list<int> -> !torch.vtensor<[512],f32>
    %float1.000000e-01_1852 = torch.constant.float 1.000000e-01
    %1904 = torch.aten.mul.Scalar %1903, %float1.000000e-01_1852 : !torch.vtensor<[512],f32>, !torch.float -> !torch.vtensor<[512],f32>
    %float9.000000e-01_1853 = torch.constant.float 9.000000e-01
    %1905 = torch.aten.mul.Scalar %arg144, %float9.000000e-01_1853 : !torch.vtensor<[512],f32>, !torch.float -> !torch.vtensor<[512],f32>
    %int1_1854 = torch.constant.int 1
    %1906 = torch.aten.add.Tensor %1904, %1905, %int1_1854 : !torch.vtensor<[512],f32>, !torch.vtensor<[512],f32>, !torch.int -> !torch.vtensor<[512],f32>
    %int3_1855 = torch.constant.int 3
    %1907 = torch.prim.ListConstruct %int3_1855 : (!torch.int) -> !torch.list<int>
    %1908 = torch.prims.squeeze %result0_1844, %1907 : !torch.vtensor<[1,512,1,1],f32>, !torch.list<int> -> !torch.vtensor<[1,512,1],f32>
    %int2_1856 = torch.constant.int 2
    %1909 = torch.prim.ListConstruct %int2_1856 : (!torch.int) -> !torch.list<int>
    %1910 = torch.prims.squeeze %1908, %1909 : !torch.vtensor<[1,512,1],f32>, !torch.list<int> -> !torch.vtensor<[1,512],f32>
    %int0_1857 = torch.constant.int 0
    %1911 = torch.prim.ListConstruct %int0_1857 : (!torch.int) -> !torch.list<int>
    %1912 = torch.prims.squeeze %1910, %1911 : !torch.vtensor<[1,512],f32>, !torch.list<int> -> !torch.vtensor<[512],f32>
    %float1.001300e00_1858 = torch.constant.float 1.001303780964798
    %1913 = torch.aten.mul.Scalar %1912, %float1.001300e00_1858 : !torch.vtensor<[512],f32>, !torch.float -> !torch.vtensor<[512],f32>
    %float1.000000e-01_1859 = torch.constant.float 1.000000e-01
    %1914 = torch.aten.mul.Scalar %1913, %float1.000000e-01_1859 : !torch.vtensor<[512],f32>, !torch.float -> !torch.vtensor<[512],f32>
    %float9.000000e-01_1860 = torch.constant.float 9.000000e-01
    %1915 = torch.aten.mul.Scalar %arg145, %float9.000000e-01_1860 : !torch.vtensor<[512],f32>, !torch.float -> !torch.vtensor<[512],f32>
    %int1_1861 = torch.constant.int 1
    %1916 = torch.aten.add.Tensor %1914, %1915, %int1_1861 : !torch.vtensor<[512],f32>, !torch.vtensor<[512],f32>, !torch.int -> !torch.vtensor<[512],f32>
    %1917 = torch.vtensor.literal(dense_resource<torch_tensor_512_torch.float32_16> : tensor<512xf32>) : !torch.vtensor<[512],f32>
    %int-1_1862 = torch.constant.int -1
    %1918 = torch.aten.unsqueeze %1917, %int-1_1862 : !torch.vtensor<[512],f32>, !torch.int -> !torch.vtensor<[512,1],f32>
    %int-1_1863 = torch.constant.int -1
    %1919 = torch.aten.unsqueeze %1918, %int-1_1863 : !torch.vtensor<[512,1],f32>, !torch.int -> !torch.vtensor<[512,1,1],f32>
    %1920 = torch.aten.mul.Tensor %1897, %1919 : !torch.vtensor<[3,512,16,16],f32>, !torch.vtensor<[512,1,1],f32> -> !torch.vtensor<[3,512,16,16],f32>
    %1921 = torch.vtensor.literal(dense_resource<torch_tensor_512_torch.float32_17> : tensor<512xf32>) : !torch.vtensor<[512],f32>
    %int-1_1864 = torch.constant.int -1
    %1922 = torch.aten.unsqueeze %1921, %int-1_1864 : !torch.vtensor<[512],f32>, !torch.int -> !torch.vtensor<[512,1],f32>
    %int-1_1865 = torch.constant.int -1
    %1923 = torch.aten.unsqueeze %1922, %int-1_1865 : !torch.vtensor<[512,1],f32>, !torch.int -> !torch.vtensor<[512,1,1],f32>
    %int1_1866 = torch.constant.int 1
    %1924 = torch.aten.add.Tensor %1920, %1923, %int1_1866 : !torch.vtensor<[3,512,16,16],f32>, !torch.vtensor<[512,1,1],f32>, !torch.int -> !torch.vtensor<[3,512,16,16],f32>
    %1925 = torch.aten.relu %1924 : !torch.vtensor<[3,512,16,16],f32> -> !torch.vtensor<[3,512,16,16],f32>
    %1926 = torch.vtensor.literal(dense_resource<torch_tensor_2048_512_1_1_torch.float32_1> : tensor<2048x512x1x1xf32>) : !torch.vtensor<[2048,512,1,1],f32>
    %none_1867 = torch.constant.none
    %int1_1868 = torch.constant.int 1
    %int1_1869 = torch.constant.int 1
    %1927 = torch.prim.ListConstruct %int1_1868, %int1_1869 : (!torch.int, !torch.int) -> !torch.list<int>
    %int0_1870 = torch.constant.int 0
    %int0_1871 = torch.constant.int 0
    %1928 = torch.prim.ListConstruct %int0_1870, %int0_1871 : (!torch.int, !torch.int) -> !torch.list<int>
    %int1_1872 = torch.constant.int 1
    %int1_1873 = torch.constant.int 1
    %1929 = torch.prim.ListConstruct %int1_1872, %int1_1873 : (!torch.int, !torch.int) -> !torch.list<int>
    %int1_1874 = torch.constant.int 1
    %1930 = torch.aten.conv2d %1925, %1926, %none_1867, %1927, %1928, %1929, %int1_1874 : !torch.vtensor<[3,512,16,16],f32>, !torch.vtensor<[2048,512,1,1],f32>, !torch.none, !torch.list<int>, !torch.list<int>, !torch.list<int>, !torch.int -> !torch.vtensor<[3,2048,16,16],f32>
    %int1_1875 = torch.constant.int 1
    %int1_1876 = torch.constant.int 1
    %1931 = torch.aten.add.Scalar %arg149, %int1_1875, %int1_1876 : !torch.vtensor<[],si64>, !torch.int, !torch.int -> !torch.vtensor<[],si64>
    %int0_1877 = torch.constant.int 0
    %int2_1878 = torch.constant.int 2
    %int3_1879 = torch.constant.int 3
    %1932 = torch.prim.ListConstruct %int0_1877, %int2_1878, %int3_1879 : (!torch.int, !torch.int, !torch.int) -> !torch.list<int>
    %int0_1880 = torch.constant.int 0
    %true_1881 = torch.constant.bool true
    %result0_1882, %result1_1883 = torch.aten.var_mean.correction %1930, %1932, %int0_1880, %true_1881 : !torch.vtensor<[3,2048,16,16],f32>, !torch.list<int>, !torch.int, !torch.bool -> !torch.vtensor<[1,2048,1,1],f32>, !torch.vtensor<[1,2048,1,1],f32>
    %float1.000000e-05_1884 = torch.constant.float 1.000000e-05
    %int1_1885 = torch.constant.int 1
    %1933 = torch.aten.add.Scalar %result0_1882, %float1.000000e-05_1884, %int1_1885 : !torch.vtensor<[1,2048,1,1],f32>, !torch.float, !torch.int -> !torch.vtensor<[1,2048,1,1],f32>
    %1934 = torch.aten.rsqrt %1933 : !torch.vtensor<[1,2048,1,1],f32> -> !torch.vtensor<[1,2048,1,1],f32>
    %int1_1886 = torch.constant.int 1
    %1935 = torch.aten.sub.Tensor %1930, %result1_1883, %int1_1886 : !torch.vtensor<[3,2048,16,16],f32>, !torch.vtensor<[1,2048,1,1],f32>, !torch.int -> !torch.vtensor<[3,2048,16,16],f32>
    %1936 = torch.aten.mul.Tensor %1935, %1934 : !torch.vtensor<[3,2048,16,16],f32>, !torch.vtensor<[1,2048,1,1],f32> -> !torch.vtensor<[3,2048,16,16],f32>
    %int3_1887 = torch.constant.int 3
    %1937 = torch.prim.ListConstruct %int3_1887 : (!torch.int) -> !torch.list<int>
    %1938 = torch.prims.squeeze %result1_1883, %1937 : !torch.vtensor<[1,2048,1,1],f32>, !torch.list<int> -> !torch.vtensor<[1,2048,1],f32>
    %int2_1888 = torch.constant.int 2
    %1939 = torch.prim.ListConstruct %int2_1888 : (!torch.int) -> !torch.list<int>
    %1940 = torch.prims.squeeze %1938, %1939 : !torch.vtensor<[1,2048,1],f32>, !torch.list<int> -> !torch.vtensor<[1,2048],f32>
    %int0_1889 = torch.constant.int 0
    %1941 = torch.prim.ListConstruct %int0_1889 : (!torch.int) -> !torch.list<int>
    %1942 = torch.prims.squeeze %1940, %1941 : !torch.vtensor<[1,2048],f32>, !torch.list<int> -> !torch.vtensor<[2048],f32>
    %float1.000000e-01_1890 = torch.constant.float 1.000000e-01
    %1943 = torch.aten.mul.Scalar %1942, %float1.000000e-01_1890 : !torch.vtensor<[2048],f32>, !torch.float -> !torch.vtensor<[2048],f32>
    %float9.000000e-01_1891 = torch.constant.float 9.000000e-01
    %1944 = torch.aten.mul.Scalar %arg147, %float9.000000e-01_1891 : !torch.vtensor<[2048],f32>, !torch.float -> !torch.vtensor<[2048],f32>
    %int1_1892 = torch.constant.int 1
    %1945 = torch.aten.add.Tensor %1943, %1944, %int1_1892 : !torch.vtensor<[2048],f32>, !torch.vtensor<[2048],f32>, !torch.int -> !torch.vtensor<[2048],f32>
    %int3_1893 = torch.constant.int 3
    %1946 = torch.prim.ListConstruct %int3_1893 : (!torch.int) -> !torch.list<int>
    %1947 = torch.prims.squeeze %result0_1882, %1946 : !torch.vtensor<[1,2048,1,1],f32>, !torch.list<int> -> !torch.vtensor<[1,2048,1],f32>
    %int2_1894 = torch.constant.int 2
    %1948 = torch.prim.ListConstruct %int2_1894 : (!torch.int) -> !torch.list<int>
    %1949 = torch.prims.squeeze %1947, %1948 : !torch.vtensor<[1,2048,1],f32>, !torch.list<int> -> !torch.vtensor<[1,2048],f32>
    %int0_1895 = torch.constant.int 0
    %1950 = torch.prim.ListConstruct %int0_1895 : (!torch.int) -> !torch.list<int>
    %1951 = torch.prims.squeeze %1949, %1950 : !torch.vtensor<[1,2048],f32>, !torch.list<int> -> !torch.vtensor<[2048],f32>
    %float1.001300e00_1896 = torch.constant.float 1.001303780964798
    %1952 = torch.aten.mul.Scalar %1951, %float1.001300e00_1896 : !torch.vtensor<[2048],f32>, !torch.float -> !torch.vtensor<[2048],f32>
    %float1.000000e-01_1897 = torch.constant.float 1.000000e-01
    %1953 = torch.aten.mul.Scalar %1952, %float1.000000e-01_1897 : !torch.vtensor<[2048],f32>, !torch.float -> !torch.vtensor<[2048],f32>
    %float9.000000e-01_1898 = torch.constant.float 9.000000e-01
    %1954 = torch.aten.mul.Scalar %arg148, %float9.000000e-01_1898 : !torch.vtensor<[2048],f32>, !torch.float -> !torch.vtensor<[2048],f32>
    %int1_1899 = torch.constant.int 1
    %1955 = torch.aten.add.Tensor %1953, %1954, %int1_1899 : !torch.vtensor<[2048],f32>, !torch.vtensor<[2048],f32>, !torch.int -> !torch.vtensor<[2048],f32>
    %1956 = torch.vtensor.literal(dense_resource<torch_tensor_2048_torch.float32_4> : tensor<2048xf32>) : !torch.vtensor<[2048],f32>
    %int-1_1900 = torch.constant.int -1
    %1957 = torch.aten.unsqueeze %1956, %int-1_1900 : !torch.vtensor<[2048],f32>, !torch.int -> !torch.vtensor<[2048,1],f32>
    %int-1_1901 = torch.constant.int -1
    %1958 = torch.aten.unsqueeze %1957, %int-1_1901 : !torch.vtensor<[2048,1],f32>, !torch.int -> !torch.vtensor<[2048,1,1],f32>
    %1959 = torch.aten.mul.Tensor %1936, %1958 : !torch.vtensor<[3,2048,16,16],f32>, !torch.vtensor<[2048,1,1],f32> -> !torch.vtensor<[3,2048,16,16],f32>
    %1960 = torch.vtensor.literal(dense_resource<torch_tensor_2048_torch.float32_5> : tensor<2048xf32>) : !torch.vtensor<[2048],f32>
    %int-1_1902 = torch.constant.int -1
    %1961 = torch.aten.unsqueeze %1960, %int-1_1902 : !torch.vtensor<[2048],f32>, !torch.int -> !torch.vtensor<[2048,1],f32>
    %int-1_1903 = torch.constant.int -1
    %1962 = torch.aten.unsqueeze %1961, %int-1_1903 : !torch.vtensor<[2048,1],f32>, !torch.int -> !torch.vtensor<[2048,1,1],f32>
    %int1_1904 = torch.constant.int 1
    %1963 = torch.aten.add.Tensor %1959, %1962, %int1_1904 : !torch.vtensor<[3,2048,16,16],f32>, !torch.vtensor<[2048,1,1],f32>, !torch.int -> !torch.vtensor<[3,2048,16,16],f32>
    %int1_1905 = torch.constant.int 1
    %1964 = torch.aten.add.Tensor %1963, %1847, %int1_1905 : !torch.vtensor<[3,2048,16,16],f32>, !torch.vtensor<[3,2048,16,16],f32>, !torch.int -> !torch.vtensor<[3,2048,16,16],f32>
    %1965 = torch.aten.relu %1964 : !torch.vtensor<[3,2048,16,16],f32> -> !torch.vtensor<[3,2048,16,16],f32>
    %1966 = torch.vtensor.literal(dense_resource<torch_tensor_512_2048_1_1_torch.float32_1> : tensor<512x2048x1x1xf32>) : !torch.vtensor<[512,2048,1,1],f32>
    %none_1906 = torch.constant.none
    %int1_1907 = torch.constant.int 1
    %int1_1908 = torch.constant.int 1
    %1967 = torch.prim.ListConstruct %int1_1907, %int1_1908 : (!torch.int, !torch.int) -> !torch.list<int>
    %int0_1909 = torch.constant.int 0
    %int0_1910 = torch.constant.int 0
    %1968 = torch.prim.ListConstruct %int0_1909, %int0_1910 : (!torch.int, !torch.int) -> !torch.list<int>
    %int1_1911 = torch.constant.int 1
    %int1_1912 = torch.constant.int 1
    %1969 = torch.prim.ListConstruct %int1_1911, %int1_1912 : (!torch.int, !torch.int) -> !torch.list<int>
    %int1_1913 = torch.constant.int 1
    %1970 = torch.aten.conv2d %1965, %1966, %none_1906, %1967, %1968, %1969, %int1_1913 : !torch.vtensor<[3,2048,16,16],f32>, !torch.vtensor<[512,2048,1,1],f32>, !torch.none, !torch.list<int>, !torch.list<int>, !torch.list<int>, !torch.int -> !torch.vtensor<[3,512,16,16],f32>
    %int1_1914 = torch.constant.int 1
    %int1_1915 = torch.constant.int 1
    %1971 = torch.aten.add.Scalar %arg152, %int1_1914, %int1_1915 : !torch.vtensor<[],si64>, !torch.int, !torch.int -> !torch.vtensor<[],si64>
    %int0_1916 = torch.constant.int 0
    %int2_1917 = torch.constant.int 2
    %int3_1918 = torch.constant.int 3
    %1972 = torch.prim.ListConstruct %int0_1916, %int2_1917, %int3_1918 : (!torch.int, !torch.int, !torch.int) -> !torch.list<int>
    %int0_1919 = torch.constant.int 0
    %true_1920 = torch.constant.bool true
    %result0_1921, %result1_1922 = torch.aten.var_mean.correction %1970, %1972, %int0_1919, %true_1920 : !torch.vtensor<[3,512,16,16],f32>, !torch.list<int>, !torch.int, !torch.bool -> !torch.vtensor<[1,512,1,1],f32>, !torch.vtensor<[1,512,1,1],f32>
    %float1.000000e-05_1923 = torch.constant.float 1.000000e-05
    %int1_1924 = torch.constant.int 1
    %1973 = torch.aten.add.Scalar %result0_1921, %float1.000000e-05_1923, %int1_1924 : !torch.vtensor<[1,512,1,1],f32>, !torch.float, !torch.int -> !torch.vtensor<[1,512,1,1],f32>
    %1974 = torch.aten.rsqrt %1973 : !torch.vtensor<[1,512,1,1],f32> -> !torch.vtensor<[1,512,1,1],f32>
    %int1_1925 = torch.constant.int 1
    %1975 = torch.aten.sub.Tensor %1970, %result1_1922, %int1_1925 : !torch.vtensor<[3,512,16,16],f32>, !torch.vtensor<[1,512,1,1],f32>, !torch.int -> !torch.vtensor<[3,512,16,16],f32>
    %1976 = torch.aten.mul.Tensor %1975, %1974 : !torch.vtensor<[3,512,16,16],f32>, !torch.vtensor<[1,512,1,1],f32> -> !torch.vtensor<[3,512,16,16],f32>
    %int3_1926 = torch.constant.int 3
    %1977 = torch.prim.ListConstruct %int3_1926 : (!torch.int) -> !torch.list<int>
    %1978 = torch.prims.squeeze %result1_1922, %1977 : !torch.vtensor<[1,512,1,1],f32>, !torch.list<int> -> !torch.vtensor<[1,512,1],f32>
    %int2_1927 = torch.constant.int 2
    %1979 = torch.prim.ListConstruct %int2_1927 : (!torch.int) -> !torch.list<int>
    %1980 = torch.prims.squeeze %1978, %1979 : !torch.vtensor<[1,512,1],f32>, !torch.list<int> -> !torch.vtensor<[1,512],f32>
    %int0_1928 = torch.constant.int 0
    %1981 = torch.prim.ListConstruct %int0_1928 : (!torch.int) -> !torch.list<int>
    %1982 = torch.prims.squeeze %1980, %1981 : !torch.vtensor<[1,512],f32>, !torch.list<int> -> !torch.vtensor<[512],f32>
    %float1.000000e-01_1929 = torch.constant.float 1.000000e-01
    %1983 = torch.aten.mul.Scalar %1982, %float1.000000e-01_1929 : !torch.vtensor<[512],f32>, !torch.float -> !torch.vtensor<[512],f32>
    %float9.000000e-01_1930 = torch.constant.float 9.000000e-01
    %1984 = torch.aten.mul.Scalar %arg150, %float9.000000e-01_1930 : !torch.vtensor<[512],f32>, !torch.float -> !torch.vtensor<[512],f32>
    %int1_1931 = torch.constant.int 1
    %1985 = torch.aten.add.Tensor %1983, %1984, %int1_1931 : !torch.vtensor<[512],f32>, !torch.vtensor<[512],f32>, !torch.int -> !torch.vtensor<[512],f32>
    %int3_1932 = torch.constant.int 3
    %1986 = torch.prim.ListConstruct %int3_1932 : (!torch.int) -> !torch.list<int>
    %1987 = torch.prims.squeeze %result0_1921, %1986 : !torch.vtensor<[1,512,1,1],f32>, !torch.list<int> -> !torch.vtensor<[1,512,1],f32>
    %int2_1933 = torch.constant.int 2
    %1988 = torch.prim.ListConstruct %int2_1933 : (!torch.int) -> !torch.list<int>
    %1989 = torch.prims.squeeze %1987, %1988 : !torch.vtensor<[1,512,1],f32>, !torch.list<int> -> !torch.vtensor<[1,512],f32>
    %int0_1934 = torch.constant.int 0
    %1990 = torch.prim.ListConstruct %int0_1934 : (!torch.int) -> !torch.list<int>
    %1991 = torch.prims.squeeze %1989, %1990 : !torch.vtensor<[1,512],f32>, !torch.list<int> -> !torch.vtensor<[512],f32>
    %float1.001300e00_1935 = torch.constant.float 1.001303780964798
    %1992 = torch.aten.mul.Scalar %1991, %float1.001300e00_1935 : !torch.vtensor<[512],f32>, !torch.float -> !torch.vtensor<[512],f32>
    %float1.000000e-01_1936 = torch.constant.float 1.000000e-01
    %1993 = torch.aten.mul.Scalar %1992, %float1.000000e-01_1936 : !torch.vtensor<[512],f32>, !torch.float -> !torch.vtensor<[512],f32>
    %float9.000000e-01_1937 = torch.constant.float 9.000000e-01
    %1994 = torch.aten.mul.Scalar %arg151, %float9.000000e-01_1937 : !torch.vtensor<[512],f32>, !torch.float -> !torch.vtensor<[512],f32>
    %int1_1938 = torch.constant.int 1
    %1995 = torch.aten.add.Tensor %1993, %1994, %int1_1938 : !torch.vtensor<[512],f32>, !torch.vtensor<[512],f32>, !torch.int -> !torch.vtensor<[512],f32>
    %1996 = torch.vtensor.literal(dense_resource<torch_tensor_512_torch.float32_18> : tensor<512xf32>) : !torch.vtensor<[512],f32>
    %int-1_1939 = torch.constant.int -1
    %1997 = torch.aten.unsqueeze %1996, %int-1_1939 : !torch.vtensor<[512],f32>, !torch.int -> !torch.vtensor<[512,1],f32>
    %int-1_1940 = torch.constant.int -1
    %1998 = torch.aten.unsqueeze %1997, %int-1_1940 : !torch.vtensor<[512,1],f32>, !torch.int -> !torch.vtensor<[512,1,1],f32>
    %1999 = torch.aten.mul.Tensor %1976, %1998 : !torch.vtensor<[3,512,16,16],f32>, !torch.vtensor<[512,1,1],f32> -> !torch.vtensor<[3,512,16,16],f32>
    %2000 = torch.vtensor.literal(dense_resource<torch_tensor_512_torch.float32_19> : tensor<512xf32>) : !torch.vtensor<[512],f32>
    %int-1_1941 = torch.constant.int -1
    %2001 = torch.aten.unsqueeze %2000, %int-1_1941 : !torch.vtensor<[512],f32>, !torch.int -> !torch.vtensor<[512,1],f32>
    %int-1_1942 = torch.constant.int -1
    %2002 = torch.aten.unsqueeze %2001, %int-1_1942 : !torch.vtensor<[512,1],f32>, !torch.int -> !torch.vtensor<[512,1,1],f32>
    %int1_1943 = torch.constant.int 1
    %2003 = torch.aten.add.Tensor %1999, %2002, %int1_1943 : !torch.vtensor<[3,512,16,16],f32>, !torch.vtensor<[512,1,1],f32>, !torch.int -> !torch.vtensor<[3,512,16,16],f32>
    %2004 = torch.aten.relu %2003 : !torch.vtensor<[3,512,16,16],f32> -> !torch.vtensor<[3,512,16,16],f32>
    %2005 = torch.vtensor.literal(dense_resource<torch_tensor_512_512_3_3_torch.float32_2> : tensor<512x512x3x3xf32>) : !torch.vtensor<[512,512,3,3],f32>
    %none_1944 = torch.constant.none
    %int1_1945 = torch.constant.int 1
    %int1_1946 = torch.constant.int 1
    %2006 = torch.prim.ListConstruct %int1_1945, %int1_1946 : (!torch.int, !torch.int) -> !torch.list<int>
    %int1_1947 = torch.constant.int 1
    %int1_1948 = torch.constant.int 1
    %2007 = torch.prim.ListConstruct %int1_1947, %int1_1948 : (!torch.int, !torch.int) -> !torch.list<int>
    %int1_1949 = torch.constant.int 1
    %int1_1950 = torch.constant.int 1
    %2008 = torch.prim.ListConstruct %int1_1949, %int1_1950 : (!torch.int, !torch.int) -> !torch.list<int>
    %int1_1951 = torch.constant.int 1
    %2009 = torch.aten.conv2d %2004, %2005, %none_1944, %2006, %2007, %2008, %int1_1951 : !torch.vtensor<[3,512,16,16],f32>, !torch.vtensor<[512,512,3,3],f32>, !torch.none, !torch.list<int>, !torch.list<int>, !torch.list<int>, !torch.int -> !torch.vtensor<[3,512,16,16],f32>
    %int1_1952 = torch.constant.int 1
    %int1_1953 = torch.constant.int 1
    %2010 = torch.aten.add.Scalar %arg155, %int1_1952, %int1_1953 : !torch.vtensor<[],si64>, !torch.int, !torch.int -> !torch.vtensor<[],si64>
    %int0_1954 = torch.constant.int 0
    %int2_1955 = torch.constant.int 2
    %int3_1956 = torch.constant.int 3
    %2011 = torch.prim.ListConstruct %int0_1954, %int2_1955, %int3_1956 : (!torch.int, !torch.int, !torch.int) -> !torch.list<int>
    %int0_1957 = torch.constant.int 0
    %true_1958 = torch.constant.bool true
    %result0_1959, %result1_1960 = torch.aten.var_mean.correction %2009, %2011, %int0_1957, %true_1958 : !torch.vtensor<[3,512,16,16],f32>, !torch.list<int>, !torch.int, !torch.bool -> !torch.vtensor<[1,512,1,1],f32>, !torch.vtensor<[1,512,1,1],f32>
    %float1.000000e-05_1961 = torch.constant.float 1.000000e-05
    %int1_1962 = torch.constant.int 1
    %2012 = torch.aten.add.Scalar %result0_1959, %float1.000000e-05_1961, %int1_1962 : !torch.vtensor<[1,512,1,1],f32>, !torch.float, !torch.int -> !torch.vtensor<[1,512,1,1],f32>
    %2013 = torch.aten.rsqrt %2012 : !torch.vtensor<[1,512,1,1],f32> -> !torch.vtensor<[1,512,1,1],f32>
    %int1_1963 = torch.constant.int 1
    %2014 = torch.aten.sub.Tensor %2009, %result1_1960, %int1_1963 : !torch.vtensor<[3,512,16,16],f32>, !torch.vtensor<[1,512,1,1],f32>, !torch.int -> !torch.vtensor<[3,512,16,16],f32>
    %2015 = torch.aten.mul.Tensor %2014, %2013 : !torch.vtensor<[3,512,16,16],f32>, !torch.vtensor<[1,512,1,1],f32> -> !torch.vtensor<[3,512,16,16],f32>
    %int3_1964 = torch.constant.int 3
    %2016 = torch.prim.ListConstruct %int3_1964 : (!torch.int) -> !torch.list<int>
    %2017 = torch.prims.squeeze %result1_1960, %2016 : !torch.vtensor<[1,512,1,1],f32>, !torch.list<int> -> !torch.vtensor<[1,512,1],f32>
    %int2_1965 = torch.constant.int 2
    %2018 = torch.prim.ListConstruct %int2_1965 : (!torch.int) -> !torch.list<int>
    %2019 = torch.prims.squeeze %2017, %2018 : !torch.vtensor<[1,512,1],f32>, !torch.list<int> -> !torch.vtensor<[1,512],f32>
    %int0_1966 = torch.constant.int 0
    %2020 = torch.prim.ListConstruct %int0_1966 : (!torch.int) -> !torch.list<int>
    %2021 = torch.prims.squeeze %2019, %2020 : !torch.vtensor<[1,512],f32>, !torch.list<int> -> !torch.vtensor<[512],f32>
    %float1.000000e-01_1967 = torch.constant.float 1.000000e-01
    %2022 = torch.aten.mul.Scalar %2021, %float1.000000e-01_1967 : !torch.vtensor<[512],f32>, !torch.float -> !torch.vtensor<[512],f32>
    %float9.000000e-01_1968 = torch.constant.float 9.000000e-01
    %2023 = torch.aten.mul.Scalar %arg153, %float9.000000e-01_1968 : !torch.vtensor<[512],f32>, !torch.float -> !torch.vtensor<[512],f32>
    %int1_1969 = torch.constant.int 1
    %2024 = torch.aten.add.Tensor %2022, %2023, %int1_1969 : !torch.vtensor<[512],f32>, !torch.vtensor<[512],f32>, !torch.int -> !torch.vtensor<[512],f32>
    %int3_1970 = torch.constant.int 3
    %2025 = torch.prim.ListConstruct %int3_1970 : (!torch.int) -> !torch.list<int>
    %2026 = torch.prims.squeeze %result0_1959, %2025 : !torch.vtensor<[1,512,1,1],f32>, !torch.list<int> -> !torch.vtensor<[1,512,1],f32>
    %int2_1971 = torch.constant.int 2
    %2027 = torch.prim.ListConstruct %int2_1971 : (!torch.int) -> !torch.list<int>
    %2028 = torch.prims.squeeze %2026, %2027 : !torch.vtensor<[1,512,1],f32>, !torch.list<int> -> !torch.vtensor<[1,512],f32>
    %int0_1972 = torch.constant.int 0
    %2029 = torch.prim.ListConstruct %int0_1972 : (!torch.int) -> !torch.list<int>
    %2030 = torch.prims.squeeze %2028, %2029 : !torch.vtensor<[1,512],f32>, !torch.list<int> -> !torch.vtensor<[512],f32>
    %float1.001300e00_1973 = torch.constant.float 1.001303780964798
    %2031 = torch.aten.mul.Scalar %2030, %float1.001300e00_1973 : !torch.vtensor<[512],f32>, !torch.float -> !torch.vtensor<[512],f32>
    %float1.000000e-01_1974 = torch.constant.float 1.000000e-01
    %2032 = torch.aten.mul.Scalar %2031, %float1.000000e-01_1974 : !torch.vtensor<[512],f32>, !torch.float -> !torch.vtensor<[512],f32>
    %float9.000000e-01_1975 = torch.constant.float 9.000000e-01
    %2033 = torch.aten.mul.Scalar %arg154, %float9.000000e-01_1975 : !torch.vtensor<[512],f32>, !torch.float -> !torch.vtensor<[512],f32>
    %int1_1976 = torch.constant.int 1
    %2034 = torch.aten.add.Tensor %2032, %2033, %int1_1976 : !torch.vtensor<[512],f32>, !torch.vtensor<[512],f32>, !torch.int -> !torch.vtensor<[512],f32>
    %2035 = torch.vtensor.literal(dense_resource<torch_tensor_512_torch.float32_20> : tensor<512xf32>) : !torch.vtensor<[512],f32>
    %int-1_1977 = torch.constant.int -1
    %2036 = torch.aten.unsqueeze %2035, %int-1_1977 : !torch.vtensor<[512],f32>, !torch.int -> !torch.vtensor<[512,1],f32>
    %int-1_1978 = torch.constant.int -1
    %2037 = torch.aten.unsqueeze %2036, %int-1_1978 : !torch.vtensor<[512,1],f32>, !torch.int -> !torch.vtensor<[512,1,1],f32>
    %2038 = torch.aten.mul.Tensor %2015, %2037 : !torch.vtensor<[3,512,16,16],f32>, !torch.vtensor<[512,1,1],f32> -> !torch.vtensor<[3,512,16,16],f32>
    %2039 = torch.vtensor.literal(dense_resource<torch_tensor_512_torch.float32_21> : tensor<512xf32>) : !torch.vtensor<[512],f32>
    %int-1_1979 = torch.constant.int -1
    %2040 = torch.aten.unsqueeze %2039, %int-1_1979 : !torch.vtensor<[512],f32>, !torch.int -> !torch.vtensor<[512,1],f32>
    %int-1_1980 = torch.constant.int -1
    %2041 = torch.aten.unsqueeze %2040, %int-1_1980 : !torch.vtensor<[512,1],f32>, !torch.int -> !torch.vtensor<[512,1,1],f32>
    %int1_1981 = torch.constant.int 1
    %2042 = torch.aten.add.Tensor %2038, %2041, %int1_1981 : !torch.vtensor<[3,512,16,16],f32>, !torch.vtensor<[512,1,1],f32>, !torch.int -> !torch.vtensor<[3,512,16,16],f32>
    %2043 = torch.aten.relu %2042 : !torch.vtensor<[3,512,16,16],f32> -> !torch.vtensor<[3,512,16,16],f32>
    %2044 = torch.vtensor.literal(dense_resource<torch_tensor_2048_512_1_1_torch.float32_2> : tensor<2048x512x1x1xf32>) : !torch.vtensor<[2048,512,1,1],f32>
    %none_1982 = torch.constant.none
    %int1_1983 = torch.constant.int 1
    %int1_1984 = torch.constant.int 1
    %2045 = torch.prim.ListConstruct %int1_1983, %int1_1984 : (!torch.int, !torch.int) -> !torch.list<int>
    %int0_1985 = torch.constant.int 0
    %int0_1986 = torch.constant.int 0
    %2046 = torch.prim.ListConstruct %int0_1985, %int0_1986 : (!torch.int, !torch.int) -> !torch.list<int>
    %int1_1987 = torch.constant.int 1
    %int1_1988 = torch.constant.int 1
    %2047 = torch.prim.ListConstruct %int1_1987, %int1_1988 : (!torch.int, !torch.int) -> !torch.list<int>
    %int1_1989 = torch.constant.int 1
    %2048 = torch.aten.conv2d %2043, %2044, %none_1982, %2045, %2046, %2047, %int1_1989 : !torch.vtensor<[3,512,16,16],f32>, !torch.vtensor<[2048,512,1,1],f32>, !torch.none, !torch.list<int>, !torch.list<int>, !torch.list<int>, !torch.int -> !torch.vtensor<[3,2048,16,16],f32>
    %int1_1990 = torch.constant.int 1
    %int1_1991 = torch.constant.int 1
    %2049 = torch.aten.add.Scalar %arg158, %int1_1990, %int1_1991 : !torch.vtensor<[],si64>, !torch.int, !torch.int -> !torch.vtensor<[],si64>
    %int0_1992 = torch.constant.int 0
    %int2_1993 = torch.constant.int 2
    %int3_1994 = torch.constant.int 3
    %2050 = torch.prim.ListConstruct %int0_1992, %int2_1993, %int3_1994 : (!torch.int, !torch.int, !torch.int) -> !torch.list<int>
    %int0_1995 = torch.constant.int 0
    %true_1996 = torch.constant.bool true
    %result0_1997, %result1_1998 = torch.aten.var_mean.correction %2048, %2050, %int0_1995, %true_1996 : !torch.vtensor<[3,2048,16,16],f32>, !torch.list<int>, !torch.int, !torch.bool -> !torch.vtensor<[1,2048,1,1],f32>, !torch.vtensor<[1,2048,1,1],f32>
    %float1.000000e-05_1999 = torch.constant.float 1.000000e-05
    %int1_2000 = torch.constant.int 1
    %2051 = torch.aten.add.Scalar %result0_1997, %float1.000000e-05_1999, %int1_2000 : !torch.vtensor<[1,2048,1,1],f32>, !torch.float, !torch.int -> !torch.vtensor<[1,2048,1,1],f32>
    %2052 = torch.aten.rsqrt %2051 : !torch.vtensor<[1,2048,1,1],f32> -> !torch.vtensor<[1,2048,1,1],f32>
    %int1_2001 = torch.constant.int 1
    %2053 = torch.aten.sub.Tensor %2048, %result1_1998, %int1_2001 : !torch.vtensor<[3,2048,16,16],f32>, !torch.vtensor<[1,2048,1,1],f32>, !torch.int -> !torch.vtensor<[3,2048,16,16],f32>
    %2054 = torch.aten.mul.Tensor %2053, %2052 : !torch.vtensor<[3,2048,16,16],f32>, !torch.vtensor<[1,2048,1,1],f32> -> !torch.vtensor<[3,2048,16,16],f32>
    %int3_2002 = torch.constant.int 3
    %2055 = torch.prim.ListConstruct %int3_2002 : (!torch.int) -> !torch.list<int>
    %2056 = torch.prims.squeeze %result1_1998, %2055 : !torch.vtensor<[1,2048,1,1],f32>, !torch.list<int> -> !torch.vtensor<[1,2048,1],f32>
    %int2_2003 = torch.constant.int 2
    %2057 = torch.prim.ListConstruct %int2_2003 : (!torch.int) -> !torch.list<int>
    %2058 = torch.prims.squeeze %2056, %2057 : !torch.vtensor<[1,2048,1],f32>, !torch.list<int> -> !torch.vtensor<[1,2048],f32>
    %int0_2004 = torch.constant.int 0
    %2059 = torch.prim.ListConstruct %int0_2004 : (!torch.int) -> !torch.list<int>
    %2060 = torch.prims.squeeze %2058, %2059 : !torch.vtensor<[1,2048],f32>, !torch.list<int> -> !torch.vtensor<[2048],f32>
    %float1.000000e-01_2005 = torch.constant.float 1.000000e-01
    %2061 = torch.aten.mul.Scalar %2060, %float1.000000e-01_2005 : !torch.vtensor<[2048],f32>, !torch.float -> !torch.vtensor<[2048],f32>
    %float9.000000e-01_2006 = torch.constant.float 9.000000e-01
    %2062 = torch.aten.mul.Scalar %arg156, %float9.000000e-01_2006 : !torch.vtensor<[2048],f32>, !torch.float -> !torch.vtensor<[2048],f32>
    %int1_2007 = torch.constant.int 1
    %2063 = torch.aten.add.Tensor %2061, %2062, %int1_2007 : !torch.vtensor<[2048],f32>, !torch.vtensor<[2048],f32>, !torch.int -> !torch.vtensor<[2048],f32>
    %int3_2008 = torch.constant.int 3
    %2064 = torch.prim.ListConstruct %int3_2008 : (!torch.int) -> !torch.list<int>
    %2065 = torch.prims.squeeze %result0_1997, %2064 : !torch.vtensor<[1,2048,1,1],f32>, !torch.list<int> -> !torch.vtensor<[1,2048,1],f32>
    %int2_2009 = torch.constant.int 2
    %2066 = torch.prim.ListConstruct %int2_2009 : (!torch.int) -> !torch.list<int>
    %2067 = torch.prims.squeeze %2065, %2066 : !torch.vtensor<[1,2048,1],f32>, !torch.list<int> -> !torch.vtensor<[1,2048],f32>
    %int0_2010 = torch.constant.int 0
    %2068 = torch.prim.ListConstruct %int0_2010 : (!torch.int) -> !torch.list<int>
    %2069 = torch.prims.squeeze %2067, %2068 : !torch.vtensor<[1,2048],f32>, !torch.list<int> -> !torch.vtensor<[2048],f32>
    %float1.001300e00_2011 = torch.constant.float 1.001303780964798
    %2070 = torch.aten.mul.Scalar %2069, %float1.001300e00_2011 : !torch.vtensor<[2048],f32>, !torch.float -> !torch.vtensor<[2048],f32>
    %float1.000000e-01_2012 = torch.constant.float 1.000000e-01
    %2071 = torch.aten.mul.Scalar %2070, %float1.000000e-01_2012 : !torch.vtensor<[2048],f32>, !torch.float -> !torch.vtensor<[2048],f32>
    %float9.000000e-01_2013 = torch.constant.float 9.000000e-01
    %2072 = torch.aten.mul.Scalar %arg157, %float9.000000e-01_2013 : !torch.vtensor<[2048],f32>, !torch.float -> !torch.vtensor<[2048],f32>
    %int1_2014 = torch.constant.int 1
    %2073 = torch.aten.add.Tensor %2071, %2072, %int1_2014 : !torch.vtensor<[2048],f32>, !torch.vtensor<[2048],f32>, !torch.int -> !torch.vtensor<[2048],f32>
    %2074 = torch.vtensor.literal(dense_resource<torch_tensor_2048_torch.float32_6> : tensor<2048xf32>) : !torch.vtensor<[2048],f32>
    %int-1_2015 = torch.constant.int -1
    %2075 = torch.aten.unsqueeze %2074, %int-1_2015 : !torch.vtensor<[2048],f32>, !torch.int -> !torch.vtensor<[2048,1],f32>
    %int-1_2016 = torch.constant.int -1
    %2076 = torch.aten.unsqueeze %2075, %int-1_2016 : !torch.vtensor<[2048,1],f32>, !torch.int -> !torch.vtensor<[2048,1,1],f32>
    %2077 = torch.aten.mul.Tensor %2054, %2076 : !torch.vtensor<[3,2048,16,16],f32>, !torch.vtensor<[2048,1,1],f32> -> !torch.vtensor<[3,2048,16,16],f32>
    %2078 = torch.vtensor.literal(dense_resource<torch_tensor_2048_torch.float32_7> : tensor<2048xf32>) : !torch.vtensor<[2048],f32>
    %int-1_2017 = torch.constant.int -1
    %2079 = torch.aten.unsqueeze %2078, %int-1_2017 : !torch.vtensor<[2048],f32>, !torch.int -> !torch.vtensor<[2048,1],f32>
    %int-1_2018 = torch.constant.int -1
    %2080 = torch.aten.unsqueeze %2079, %int-1_2018 : !torch.vtensor<[2048,1],f32>, !torch.int -> !torch.vtensor<[2048,1,1],f32>
    %int1_2019 = torch.constant.int 1
    %2081 = torch.aten.add.Tensor %2077, %2080, %int1_2019 : !torch.vtensor<[3,2048,16,16],f32>, !torch.vtensor<[2048,1,1],f32>, !torch.int -> !torch.vtensor<[3,2048,16,16],f32>
    %int1_2020 = torch.constant.int 1
    %2082 = torch.aten.add.Tensor %2081, %1965, %int1_2020 : !torch.vtensor<[3,2048,16,16],f32>, !torch.vtensor<[3,2048,16,16],f32>, !torch.int -> !torch.vtensor<[3,2048,16,16],f32>
    %2083 = torch.aten.relu %2082 : !torch.vtensor<[3,2048,16,16],f32> -> !torch.vtensor<[3,2048,16,16],f32>
    %int1_2021 = torch.constant.int 1
    %int1_2022 = torch.constant.int 1
    %2084 = torch.prim.ListConstruct %int1_2021, %int1_2022 : (!torch.int, !torch.int) -> !torch.list<int>
    %2085 = torch.aten.adaptive_avg_pool2d %2083, %2084 : !torch.vtensor<[3,2048,16,16],f32>, !torch.list<int> -> !torch.vtensor<[3,2048,1,1],f32>
    %int3_2023 = torch.constant.int 3
    %int2048 = torch.constant.int 2048
    %2086 = torch.prim.ListConstruct %int3_2023, %int2048 : (!torch.int, !torch.int) -> !torch.list<int>
    %2087 = torch.aten.view %2085, %2086 : !torch.vtensor<[3,2048,1,1],f32>, !torch.list<int> -> !torch.vtensor<[3,2048],f32>
    %2088 = torch.vtensor.literal(dense_resource<torch_tensor_1000_2048_torch.float32> : tensor<1000x2048xf32>) : !torch.vtensor<[1000,2048],f32>
    %2089 = torch.vtensor.literal(dense_resource<torch_tensor_1000_torch.float32> : tensor<1000xf32>) : !torch.vtensor<[1000],f32>
    %2090 = torch.aten.linear %2087, %2088, %2089 : !torch.vtensor<[3,2048],f32>, !torch.vtensor<[1000,2048],f32>, !torch.vtensor<[1000],f32> -> !torch.vtensor<[3,1000],f32>
    return %19, %29, %5, %63, %73, %49, %101, %111, %87, %140, %150, %126, %179, %189, %165, %219, %229, %205, %258, %268, %244, %297, %307, %283, %337, %347, %323, %376, %386, %362, %415, %425, %401, %455, %465, %441, %493, %503, %479, %532, %542, %518, %571, %581, %557, %611, %621, %597, %650, %660, %636, %689, %699, %675, %729, %739, %715, %768, %778, %754, %807, %817, %793, %847, %857, %833, %886, %896, %872, %925, %935, %911, %965, %975, %951, %1003, %1013, %989, %1042, %1052, %1028, %1081, %1091, %1067, %1121, %1131, %1107, %1160, %1170, %1146, %1199, %1209, %1185, %1239, %1249, %1225, %1278, %1288, %1264, %1317, %1327, %1303, %1357, %1367, %1343, %1396, %1406, %1382, %1435, %1445, %1421, %1475, %1485, %1461, %1514, %1524, %1500, %1553, %1563, %1539, %1593, %1603, %1579, %1632, %1642, %1618, %1671, %1681, %1657, %1711, %1721, %1697, %1749, %1759, %1735, %1788, %1798, %1774, %1827, %1837, %1813, %1867, %1877, %1853, %1906, %1916, %1892, %1945, %1955, %1931, %1985, %1995, %1971, %2024, %2034, %2010, %2063, %2073, %2049, %2090 : !torch.vtensor<[64],f32>, !torch.vtensor<[64],f32>, !torch.vtensor<[],si64>, !torch.vtensor<[256],f32>, !torch.vtensor<[256],f32>, !torch.vtensor<[],si64>, !torch.vtensor<[64],f32>, !torch.vtensor<[64],f32>, !torch.vtensor<[],si64>, !torch.vtensor<[64],f32>, !torch.vtensor<[64],f32>, !torch.vtensor<[],si64>, !torch.vtensor<[256],f32>, !torch.vtensor<[256],f32>, !torch.vtensor<[],si64>, !torch.vtensor<[64],f32>, !torch.vtensor<[64],f32>, !torch.vtensor<[],si64>, !torch.vtensor<[64],f32>, !torch.vtensor<[64],f32>, !torch.vtensor<[],si64>, !torch.vtensor<[256],f32>, !torch.vtensor<[256],f32>, !torch.vtensor<[],si64>, !torch.vtensor<[64],f32>, !torch.vtensor<[64],f32>, !torch.vtensor<[],si64>, !torch.vtensor<[64],f32>, !torch.vtensor<[64],f32>, !torch.vtensor<[],si64>, !torch.vtensor<[256],f32>, !torch.vtensor<[256],f32>, !torch.vtensor<[],si64>, !torch.vtensor<[512],f32>, !torch.vtensor<[512],f32>, !torch.vtensor<[],si64>, !torch.vtensor<[128],f32>, !torch.vtensor<[128],f32>, !torch.vtensor<[],si64>, !torch.vtensor<[128],f32>, !torch.vtensor<[128],f32>, !torch.vtensor<[],si64>, !torch.vtensor<[512],f32>, !torch.vtensor<[512],f32>, !torch.vtensor<[],si64>, !torch.vtensor<[128],f32>, !torch.vtensor<[128],f32>, !torch.vtensor<[],si64>, !torch.vtensor<[128],f32>, !torch.vtensor<[128],f32>, !torch.vtensor<[],si64>, !torch.vtensor<[512],f32>, !torch.vtensor<[512],f32>, !torch.vtensor<[],si64>, !torch.vtensor<[128],f32>, !torch.vtensor<[128],f32>, !torch.vtensor<[],si64>, !torch.vtensor<[128],f32>, !torch.vtensor<[128],f32>, !torch.vtensor<[],si64>, !torch.vtensor<[512],f32>, !torch.vtensor<[512],f32>, !torch.vtensor<[],si64>, !torch.vtensor<[128],f32>, !torch.vtensor<[128],f32>, !torch.vtensor<[],si64>, !torch.vtensor<[128],f32>, !torch.vtensor<[128],f32>, !torch.vtensor<[],si64>, !torch.vtensor<[512],f32>, !torch.vtensor<[512],f32>, !torch.vtensor<[],si64>, !torch.vtensor<[1024],f32>, !torch.vtensor<[1024],f32>, !torch.vtensor<[],si64>, !torch.vtensor<[256],f32>, !torch.vtensor<[256],f32>, !torch.vtensor<[],si64>, !torch.vtensor<[256],f32>, !torch.vtensor<[256],f32>, !torch.vtensor<[],si64>, !torch.vtensor<[1024],f32>, !torch.vtensor<[1024],f32>, !torch.vtensor<[],si64>, !torch.vtensor<[256],f32>, !torch.vtensor<[256],f32>, !torch.vtensor<[],si64>, !torch.vtensor<[256],f32>, !torch.vtensor<[256],f32>, !torch.vtensor<[],si64>, !torch.vtensor<[1024],f32>, !torch.vtensor<[1024],f32>, !torch.vtensor<[],si64>, !torch.vtensor<[256],f32>, !torch.vtensor<[256],f32>, !torch.vtensor<[],si64>, !torch.vtensor<[256],f32>, !torch.vtensor<[256],f32>, !torch.vtensor<[],si64>, !torch.vtensor<[1024],f32>, !torch.vtensor<[1024],f32>, !torch.vtensor<[],si64>, !torch.vtensor<[256],f32>, !torch.vtensor<[256],f32>, !torch.vtensor<[],si64>, !torch.vtensor<[256],f32>, !torch.vtensor<[256],f32>, !torch.vtensor<[],si64>, !torch.vtensor<[1024],f32>, !torch.vtensor<[1024],f32>, !torch.vtensor<[],si64>, !torch.vtensor<[256],f32>, !torch.vtensor<[256],f32>, !torch.vtensor<[],si64>, !torch.vtensor<[256],f32>, !torch.vtensor<[256],f32>, !torch.vtensor<[],si64>, !torch.vtensor<[1024],f32>, !torch.vtensor<[1024],f32>, !torch.vtensor<[],si64>, !torch.vtensor<[256],f32>, !torch.vtensor<[256],f32>, !torch.vtensor<[],si64>, !torch.vtensor<[256],f32>, !torch.vtensor<[256],f32>, !torch.vtensor<[],si64>, !torch.vtensor<[1024],f32>, !torch.vtensor<[1024],f32>, !torch.vtensor<[],si64>, !torch.vtensor<[2048],f32>, !torch.vtensor<[2048],f32>, !torch.vtensor<[],si64>, !torch.vtensor<[512],f32>, !torch.vtensor<[512],f32>, !torch.vtensor<[],si64>, !torch.vtensor<[512],f32>, !torch.vtensor<[512],f32>, !torch.vtensor<[],si64>, !torch.vtensor<[2048],f32>, !torch.vtensor<[2048],f32>, !torch.vtensor<[],si64>, !torch.vtensor<[512],f32>, !torch.vtensor<[512],f32>, !torch.vtensor<[],si64>, !torch.vtensor<[512],f32>, !torch.vtensor<[512],f32>, !torch.vtensor<[],si64>, !torch.vtensor<[2048],f32>, !torch.vtensor<[2048],f32>, !torch.vtensor<[],si64>, !torch.vtensor<[512],f32>, !torch.vtensor<[512],f32>, !torch.vtensor<[],si64>, !torch.vtensor<[512],f32>, !torch.vtensor<[512],f32>, !torch.vtensor<[],si64>, !torch.vtensor<[2048],f32>, !torch.vtensor<[2048],f32>, !torch.vtensor<[],si64>, !torch.vtensor<[3,1000],f32>
  }
}
userinfo={"cwd": "", "runningStatus": "\u5c31\u7eea", "modelFile": "/home/xushilong/tiaoyouqi/sample_model/resnet50.py", "operatorOutputDir": "/home/xushilong/tiaoyouqi/codgendir", "platform": "dcu", "optimizeOperators": ["mm", "pool", "conv2d"], "tuningConfigFile": "/home/xushilong/tiaoyouqi/stub_code/tune_configs_standard.yaml", "tempPath": "/home/xushilong/tiaoyouqi/temp"}
